logs/wage_model/version_2/checkpoints/epoch=99-step=3600.ckpt (torch, 27562 bytes, 10 tensors)

model.fc1.weight f4 [64, 4]
0	0xbdc237ef	-0.09483325
1	0xbbea5c04	-0.0071520824
2	0x3d64b4e8	0.05583659
3	0x3e24c23e	0.16089723
4	0x3e45d92a	0.19321123
5	0x3da82ef6	0.08212082
6	0x3db4588f	0.08805954
7	0x3f2447f7	0.6417231
8	0x3e5df832	0.2167671
9	0x3ce6d7f8	0.028179154
10	0x3e9ce6d6	0.30644864
11	0x3d08bdd5	0.033384163
12	0xbda76179	-0.08172888
13	0x3dea9292	0.11453737
14	0x3e89a124	0.26880753
15	0xbc8e4ce8	-0.017370656
16	0xbdd6dcae	-0.1049131
17	0xbfd2445a	-1.6427109
18	0x3f11b8f8	0.56922865
19	0xbcb93166	-0.022606563
20	0x3bd95958	0.006632965
21	0x3d2cc19b	0.042176824
22	0x3e4a0c34	0.19731218
23	0x3dc02ac4	0.09383157
24	0x3e03bc90	0.128649
25	0x3db0fb5b	0.08641692
26	0x3e9e4aaf	0.30916354
27	0x3e8b90f6	0.27259034
28	0x3e2763af	0.1634662
29	0x3e6476c8	0.22310936
30	0x3f10d810	0.56579685
31	0xbec119eb	-0.37715086
32	0xbe47e031	-0.19519116
33	0x3e627a79	0.22117032
34	0xbe9f2178	-0.31080222
35	0x3c98a660	0.018634021
36	0x3d0ad834	0.033897594
37	0x3dd3b6e4	0.10337618
38	0x3ed7fa80	0.42183304
39	0x3f322a99	0.6959625
40	0xbe741c36	-0.23838887
41	0x3e0c29f8	0.13687885
42	0x3ee47985	0.44623962
43	0xbe118af5	-0.14213164
44	0x3e54c7bc	0.20779318
45	0xbd6b7c14	-0.057491377
46	0x3e8c5fac	0.27416742
47	0x3f0b6ade	0.5445994
48	0x3d2c45cc	0.04205875
49	0x3db0e660	0.086376905
50	0x3e6b1d38	0.22960365
51	0x3e044e3a	0.12920466
52	0x3e0cee85	0.13762863
53	0x3e6b184e	0.2295849
54	0x3f242a74	0.6412728
55	0x3f312b2f	0.6920652
56	0x3ccefd14	0.025267161
57	0x3e30ba22	0.17258504
58	0x3e1873ea	0.14887968
59	0x3f239701	0.6390229
60	0xbe80c6ca	-0.25151664
61	0x3e2fbdee	0.17162296
62	0xbeb1a570	-0.3469653
63	0xbe06c22a	-0.13160005
64	0x3d0cbd7e	0.0343604
65	0x3d91cab0	0.07118738
66	0x3daf3d3c	0.085566014
67	0x3d1f5fda	0.03890977
68	0x3da4e652	0.080517426
69	0xbd8d2206	-0.06891255
70	0xbf1b7474	-0.6072457
71	0x3f5f3a10	0.8719797
72	0x3cfc33bc	0.030786388
73	0x3dc63254	0.09677568
74	0x3e84d21b	0.25941548
75	0xbd2b82be	-0.041872732
76	0xbebe04e2	-0.371131
77	0x3e46141c	0.19343609
78	0x3ee93d47	0.45554563
79	0x3eac7e4b	0.33690104
80	0x3dc3a205	0.09552387
81	0x3d68fbe2	0.05688084
82	0x3ec794d0	0.38980722
83	0x3f3ad218	0.7297683
84	0xbe388383	-0.18018918
85	0x3e3f1a24	0.18662316
86	0x3e0400d7	0.12890945
87	0x3dc1bc28	0.09459716
88	0xbe355576	-0.17708382
89	0x3e284fc0	0.16436672
90	0xbee94ce4	-0.45566475
91	0x3daf3e44	0.08556798
92	0xbdd82186	-0.10553269
93	0x3e5c3235	0.21503527
94	0x3e3f3c39	0.18675317
95	0xbf273bcd	-0.65325624
96	0x3d25baee	0.040461473
97	0x3cd169b4	0.025563098
98	0x3eb2db4f	0.34932944
99	0xbddf835d	-0.109137274
100	0xbd0fd465	-0.035114665
101	0x3e78c71b	0.24294703
102	0x3f153635	0.5828584
103	0xbe5d9668	-0.21639407
104	0x3e69da58	0.22837198
105	0x3e020a6a	0.12699285
106	0x3ea4afbf	0.32165334
107	0xbc64e3a4	-0.013970289
108	0x3d9f74ab	0.077859245
109	0x3e5fe234	0.21863633
110	0x3e0e9482	0.13923839
111	0x3d853e14	0.06505981
112	0x3dfc58ac	0.123216
113	0x3de7c204	0.113163024
114	0x3c86b806	0.016445171
115	0xbddcacc7	-0.10775142
116	0xbd99c9a6	-0.075091645
117	0x3e840625	0.25785938
118	0x3e83dc0f	0.2575383
119	0x3dc8cfbe	0.09805249
120	0x3ca7665e	0.020434555
121	0x3e1ab700	0.15108871
122	0x3e741d89	0.23839392
123	0x3de1c6eb	0.11024269
124	0x3d408c5e	0.047008865
125	0x3eb4007e	0.35156626
126	0x3e1ffacc	0.15623015
127	0xbceaa188	-0.028641477
128	0x3e080024	0.13281304
129	0x3e68d68a	0.2273809
130	0x3c1ce288	0.009575494
131	0xbf34a7e1	-0.7056866
132	0xbddf9950	-0.10917914
133	0x3d9facf4	0.0779666
134	0x3e8c6b29	0.27425507
135	0xbe787138	-0.2426194
136	0x3c6ad426	0.014332807
137	0x3e7a2bed	0.24430819
138	0x3e82f6f8	0.25579047
139	0xbd5e4847	-0.054268148
140	0xbc352194	-0.011055369
141	0x3d9763d2	0.07392086
142	0x3e762443	0.2403727
143	0x397cb300	0.00024099275
144	0xbd3c016d	-0.045899797
145	0x3e700e40	0.23442936
146	0x3eeb8b90	0.46004915
147	0xbe74b324	-0.23896462
148	0x3e0716c7	0.13192283
149	0x3dfb3304	0.1226559
150	0x3e81d8e4	0.25360787
151	0x3e321cd1	0.17393805
152	0xbe0ee181	-0.1395321
153	0x3e0bf416	0.1366733
154	0x3f38af9e	0.7214297
155	0x3d9d68c4	0.07685998
156	0xbe256817	-0.16152988
157	0x3e0206e8	0.12697947
158	0x3aa3eeb0	0.0012507048
159	0xbf28a8ff	-0.6588287
160	0xbcc6cde0	-0.02426809
161	0x3e002618	0.12514532
162	0x3e1699de	0.14707133
163	0x3df7fa40	0.12108278
164	0xbbe77bf2	-0.007064336
165	0x3d067f92	0.032836504
166	0x3e361090	0.17779756
167	0xbdbc8048	-0.09204155
168	0xbdc8e8b2	-0.09810008
169	0x3e0797d2	0.13241509
170	0x3c0d0be6	0.008608794
171	0xbf1c1bc0	-0.60979843
172	0xbcd5bd1a	-0.026091147
173	0xbd541ace	-0.051783375
174	0xbde75a3d	-0.112965085
175	0xbf0d4401	-0.5518189
176	0xbcfb52dc	-0.030679159
177	0x3d49680c	0.049171492
178	0x3da5d670	0.08097541
179	0xbf3d238a	-0.73882353
180	0x3e8723ad	0.26394406
181	0xbd347f43	-0.04406668
182	0x3f039489	0.5139852
183	0x3ef55fd2	0.47924668
184	0x3e5ced5b	0.21574919
185	0x3dde5abd	0.10857151
186	0x3e2fa2e2	0.17151979
187	0x3f2ee942	0.68324673
188	0x3e1e1b08	0.15439999
189	0x3c8baf52	0.017051373
190	0x3eed23d7	0.46316406
191	0x3f1da7f1	0.61584383
192	0xbc9bff7c	-0.019042723
193	0x3e21ce98	0.15801466
194	0xbd3d1e93	-0.046171736
195	0xbf2d130f	-0.67607206
196	0x3e4bb453	0.19893007
197	0x3ea397e6	0.31951827
198	0x3e33a489	0.17543234
199	0xb8959400	-7.132441e-05
200	0x3ddd8833	0.108169936
201	0x3e0fbb26	0.14036235
202	0x3e6a1c5c	0.2286238
203	0x3f43ee26	0.7653526
204	0x3da6b1a6	0.081393525
205	0x3e503018	0.20330846
206	0x3e7fb8c9	0.24972834
207	0xbd86c30e	-0.065801725
208	0x3e84a7db	0.25909314
209	0x3dd8eec3	0.10592415
210	0x3e63d626	0.2224966
211	0x3e13ae6e	0.14422008
212	0x3d933152	0.071871415
213	0x3ea57f6a	0.32323772
214	0x3f050e7c	0.51975226
215	0xbecc6154	-0.39918005
216	0xbd1a44d6	-0.037663303
217	0x3e0c3898	0.13693464
218	0x3f050a95	0.5196927
219	0x3f547664	0.8299315
220	0xbe848370	-0.2588153
221	0x3c1ebf7a	0.009689206
222	0x3ef2cc80	0.47421646
223	0xbd288399	-0.041141126
224	0xbd1b9b1e	-0.03798973
225	0xbb3f86e4	-0.0029224688
226	0xbf330dfe	-0.69943225
227	0x3f6fd75d	0.93687993
228	0x3d81340a	0.06308754
229	0x3e5a3794	0.21310264
230	0x3dd92bf0	0.106040835
231	0xbd90e21c	-0.07074377
232	0xbd71806c	-0.058960363
233	0x3d190d4b	0.037366193
234	0x3db2db3f	0.08733224
235	0x3c4f0093	0.012634414
236	0xbd641b90	-0.05569035
237	0x3dca635c	0.098822325
238	0xbedfcb22	-0.43709666
239	0xbe23990c	-0.15976351
240	0x3e08587a	0.13315001
241	0x3df60e56	0.12014453
242	0x3ec989f8	0.39363074
243	0xbcbec618	-0.023287818
244	0xbe4802d9	-0.19532336
245	0x3e6f9b5a	0.23399106
246	0x3d60377e	0.05474042
247	0x3c742ae1	0.014902801
248	0x3e2e7ce2	0.17039827
249	0x3d9970e8	0.07492238
250	0x3dce64e4	0.10077837
251	0x3d19e100	0.037568092
252	0x3e65ed16	0.22453722
253	0x3e54d26c	0.20783395
254	0x3f26d2c1	0.65165335
255	0xbecb9912	-0.3976522

model.fc1.bias f4 [64]
0	0xbf138b3e	-0.5763434
1	0xbe67f42e	-0.22651741
2	0x3f3a1858	0.72693396
3	0x3f1631cf	0.5866975
4	0xbfe4638d	-1.784288
5	0x3f2c2c9e	0.6725558
6	0x3f230025	0.63672096
7	0x3ed15fcd	0.40893403
8	0x3ef69836	0.48163003
9	0xbe84ddd3	-0.25950488
10	0x3ec9b103	0.39392862
11	0xbc863055	-0.016380468
12	0x3f0e1106	0.55494726
13	0xbf2cbc0b	-0.6747443
14	0xbea9da54	-0.33174384
15	0x3f059529	0.52180725
16	0x3f096d3f	0.5368232
17	0xbf24e990	-0.6441889
18	0x3f448332	0.7676269
19	0x3f174325	0.5908683
20	0xbee44046	-0.44580287
21	0x3f3038fe	0.68836963
22	0x3efd57d2	0.49481064
23	0x3d6b4ebd	0.057448138
24	0x3f29f18c	0.66384196
25	0x3f038011	0.5136729
26	0x3f230e73	0.6369392
27	0x3f1dc612	0.61630356
28	0x3f1a226b	0.6020877
29	0x3f547aac	0.8299968
30	0x3f436357	0.76323456
31	0x3f303ac1	0.6883965
32	0xbe635e4e	-0.22203943
33	0x3f25ec4b	0.6481368
34	0x3f38180d	0.719117
35	0x3f318e5a	0.69357836
36	0x3ed590c9	0.41712025
37	0x3f49ac40	0.7877846
38	0x3f0824c1	0.5318108
39	0xbe5a74eb	-0.21333663
40	0x3f134e6a	0.57541525
41	0x3f11328e	0.56717765
42	0x3dc115cd	0.09427986
43	0xbe26730f	-0.16254829
44	0xbdf76c64	-0.12081221
45	0xbaa07f80	-0.0012245029
46	0xbea21c60	-0.31662273
47	0xbe096fa2	-0.13421491
48	0xbe189b7f	-0.14903067
49	0x3f40da54	0.7533314
50	0xbe8f1023	-0.27942
51	0x3f3c345b	0.7351739
52	0x3f495aad	0.78653985
53	0x3ee6edd5	0.45103326
54	0xbe79d6f6	-0.24398407
55	0x3e8fd026	0.28088492
56	0xbeda5d07	-0.426491
57	0x3f3207cd	0.69543153
58	0x3f3c7e29	0.73630005
59	0x3ed581f9	0.41700724
60	0x3f3e94b6	0.74445665
61	0x3f1cf0c8	0.61304903
62	0x3f431fa3	0.7622015
63	0x3eaf1428	0.34195065

model.fc2.weight f4 [32, 64]
0	0xbd681c26	-0.05666747
1	0xbd121a5c	-0.03566967
2	0xbde4dc2a	-0.111748055
3	0xbdcbde70	-0.09954536
4	0xbe56a574	-0.20961553
5	0xbda20ced	-0.07912622
6	0xbceeb78c	-0.029140256
7	0xbe5af3f8	-0.21382129
8	0xbddafdfa	-0.106929734
9	0xbe18b6e6	-0.1491352
10	0xbe3804c2	-0.17970565
11	0xbdfdb146	-0.12387328
12	0xbe30350e	-0.17207739
13	0xbd9264c9	-0.071481295
14	0xbe246956	-0.16055807
15	0xbe61207e	-0.21985051
16	0xbe08a72a	-0.13345018
17	0xbcbef2d4	-0.023309149
18	0xbda90aec	-0.08254036
19	0xbe50bc8c	-0.20384425
20	0x3cc472e4	0.023980565
21	0xbd94f808	-0.07273871
22	0xbd83c9ac	-0.0643495
23	0xbdac0d6e	-0.08400999
24	0xbe347d3e	-0.17625901
25	0xbc6ba990	-0.014383689
26	0xbe094586	-0.13405427
27	0xbd906cf2	-0.0705203
28	0xbdebd60e	-0.11515437
29	0xbd7e4772	-0.062079854
30	0xbe18dc8c	-0.14927882
31	0xbe3cfaac	-0.18454999
32	0xbe532f9b	-0.20623629
33	0xbc830b28	-0.01599653
34	0xbda9fc9c	-0.083001345
35	0xbcf23680	-0.029567003
36	0xbda869b4	-0.08223286
37	0xbe662a51	-0.2247708
38	0x3c802310	0.01564172
39	0xbc3bb400	-0.01145649
40	0xbe242ffc	-0.1603393
41	0xbd77bffa	-0.060485817
42	0xbde1d794	-0.110274464
43	0xbc8a65a4	-0.01689417
44	0x3b5820c0	0.0032978505
45	0xbd0b751a	-0.034047224
46	0xbcbe5c30	-0.023237318
47	0x3caa9c34	0.020826437
48	0xbddc699e	-0.107623324
49	0xbe0129f8	-0.12613666
50	0xbe38deae	-0.18053696
51	0xbdd7c857	-0.10536259
52	0xbcc750f4	-0.024330594
53	0xbe59bfbe	-0.2126455
54	0xbe0dd86e	-0.13852093
55	0xbddea478	-0.10871214
56	0xbd82aa5b	-0.06380149
57	0xbe45c1c0	-0.19312191
58	0xbda33485	-0.07969002
59	0xbe208044	-0.1567393
60	0xbe62f188	-0.2216245
61	0xbe5d21b0	-0.21594882
62	0xbd469b3e	-0.048487894
63	0xbdc1b7ad	-0.094588615
64	0xbce094c8	-0.027414694
65	0x3e7db243	0.24775033
66	0x3e05e963	0.13077311
67	0x3e53535a	0.20637265
68	0xbfa68973	-1.3010696
69	0x3d6c4357	0.057681408
70	0x3e540f61	0.20708992
71	0x3e91fdac	0.2851385
72	0x3d8f81c4	0.07007173
73	0xbb8fbe90	-0.0043867305
74	0x3e8cfaf8	0.27535224
75	0x3d0d5a2f	0.034509834
76	0x3d949dca	0.072566584
77	0x3eb0c988	0.34528756
78	0xbe3cf83c	-0.18454069
79	0x3e0a9c45	0.13536175
80	0xbe472c8a	-0.19450584
81	0x3ebdac7a	0.37045652
82	0x3d7d9c5b	0.06191669
83	0x3e8bd3b7	0.27309963
84	0xbc256032	-0.0100937355
85	0x3e087e7f	0.13329504
86	0x3e4366fd	0.19082256
87	0xbd742188	-0.05960229
88	0x3ed073f3	0.40713462
89	0x3e977c2f	0.29586932
90	0x3e847ba5	0.25875583
91	0x3cd4e9c6	0.025990378
92	0x3dc3b923	0.095567964
93	0x3edc9402	0.4308167
94	0x3eb1a3e1	0.34695342
95	0x3e87714e	0.26453632
96	0x3e106961	0.14102699
97	0x3e1105ce	0.1416237
98	0xbd7d6e36	-0.061872683
99	0x3db4f3b8	0.08835548
100	0x3e03a526	0.12855968
101	0x3db2dae2	0.08733155
102	0x3e214ddc	0.15752357
103	0x3e239791	0.15975787
104	0x3df2d725	0.11857442
105	0x3e98a75d	0.29815188
106	0x3ddcec20	0.10787225
107	0x3d9a2ab4	0.07527676
108	0x3dca8a15	0.09889618
109	0x3eb12f66	0.34606475
110	0x3e9714d4	0.29508078
111	0x3f0a5854	0.5404103
112	0x3dbfbd0b	0.09362229
113	0x3e4ac7ea	0.19802824
114	0x3e71f117	0.23627125
115	0x3e1fb614	0.15596801
116	0x3e1d9527	0.15388928
117	0x3e0775f5	0.13228591
118	0x3d7cd5f2	0.06172747
119	0x3e3ce49c	0.18446583
120	0x3e38c3b2	0.18043402
121	0x3e2a00c9	0.16601862
122	0x3eacd8f5	0.33759275
123	0xbd85544f	-0.06510221
124	0x3c84efbe	0.0162276
125	0x3e4de19d	0.20105596
126	0x3eb93167	0.36170503
127	0x3de050a9	0.10952885
128	0xbc4416b0	-0.0119683
129	0xbdc2f1e6	-0.09518795
130	0xbe0c47d5	-0.13699277
131	0xbe322129	-0.17395462
132	0xbdb31bda	-0.08745547
133	0xbd988ab2	-0.07448329
134	0xbb898a30	-0.0041973814
135	0xbde78efa	-0.113065675
136	0xbe0bef46	-0.13665494
137	0xbdd144ae	-0.10218178
138	0xbdd79441	-0.10526324
139	0xbe069208	-0.13141644
140	0x3bbc3100	0.005743146
141	0xbc20bf30	-0.009811208
142	0xbd382b06	-0.044962905
143	0xbe29c20e	-0.16577932
144	0xba5c9580	-0.0008414611
145	0xbcf90790	-0.030399114
146	0x3cbc1210	0.022957832
147	0xbdbebd66	-0.09313469
148	0xbdcf9c4a	-0.10137232
149	0xbe0c1bf0	-0.13682532
150	0xbd788918	-0.060677618
151	0xbd558ba8	-0.05213514
152	0xbe4da94c	-0.20084113
153	0xbd6c96c2	-0.05776096
154	0xbe51bf6a	-0.20483175
155	0x3c442b38	0.011973195
156	0xbd49efa6	-0.049300812
157	0xbd961fff	-0.073303215
158	0x3ca17978	0.019711241
159	0xbb329e80	-0.0027255118
160	0xbdaeac6a	-0.08528979
161	0xbdd996ff	-0.10624503
162	0xbe044672	-0.12917498
163	0xbdb0c296	-0.08630864
164	0xbe13f93a	-0.14450541
165	0xbe20ed1e	-0.15715453
166	0xbd462018	-0.04837045
167	0xbd355d8e	-0.044278674
168	0xbe3519c9	-0.17685618
169	0xbda45764	-0.08024481
170	0xbe342c20	-0.17594957
171	0xbe481e16	-0.19542727
172	0xbe46c6e5	-0.1941181
173	0x3c4b79f0	0.012419209
174	0x3cbf422c	0.023346983
175	0xbd724cf6	-0.059155427
176	0xbe0b135a	-0.13581601
177	0xbc6c14a8	-0.014409222
178	0xbe084a62	-0.13309625
179	0xbd889f65	-0.06671027
180	0xbd333146	-0.043748163
181	0xbe17655e	-0.14784762
182	0xbd480718	-0.04883489
183	0xbe1e7908	-0.15475857
184	0xbe4ce649	-0.20009722
185	0xbd8f1f10	-0.069883466
186	0xbe5af366	-0.21381912
187	0xbe3bc2c0	-0.1833601
188	0xbad05980	-0.0015895814
189	0xbe55082d	-0.208039
190	0xbca6ed8c	-0.020376943
191	0xbd75a918	-0.059975713
192	0xbc68797f	-0.014189123
193	0x3e20c143	0.15698723
194	0xbde6ffa1	-0.11279226
195	0x3e68021b	0.22657053
196	0xc0199305	-2.3995984
197	0xbd5bc910	-0.053658545
198	0xbc65df55	-0.014030297
199	0x3e618ecf	0.22027133
200	0xbdcf5520	-0.10123658
201	0x3eb619d5	0.35566583
202	0x3e839bc1	0.25704768
203	0x3e7cf8df	0.24704312
204	0x3e301321	0.17194797
205	0x3f0ba377	0.545463
206	0x3e67f91f	0.22653626
207	0x3ecb360b	0.3968967
208	0x3d7e7f68	0.062133223
209	0x3dbfa31e	0.09357284
210	0x3e2eb558	0.17061365
211	0x3bedd474	0.0072579924
212	0x3eb988dd	0.3623723
213	0xba13d770	-0.00056397077
214	0x3d772abc	0.06034349
215	0x3e0dda67	0.13852845
216	0x3d004d41	0.031323675
217	0x3e7f1d4f	0.24913524
218	0x3e2de0c0	0.16980267
219	0x3e23a99e	0.15982673
220	0x3e2b39bb	0.16721241
221	0x3e30852d	0.17238303
222	0x3e5ec75c	0.21755737
223	0x3e62a8d8	0.22134721
224	0xbd20c527	-0.03925052
225	0x3d6aa3c6	0.057285093
226	0x3e77e41f	0.24208115
227	0x3ea27106	0.31726855
228	0x3db05897	0.08610647
229	0x3dee44a8	0.11634189
230	0xbb90a6b4	-0.004414404
231	0x3d0ec76d	0.034858156
232	0x3e3e1195	0.18561395
233	0x3e513edf	0.2043414
234	0x3e931e54	0.28734076
235	0x3cacd410	0.021097213
236	0x3eb69061	0.35657027
237	0x3e90d456	0.28287
238	0x3da806aa	0.08204396
239	0x3ec7e076	0.39038438
240	0x3eafa4c4	0.34305394
241	0xbe3b6b94	-0.18302757
242	0x3d81e043	0.06341603
243	0x3e57e27a	0.21082488
244	0x3d9a5eb7	0.07537597
245	0xbb89e322	-0.0042079845
246	0x3dfa6fa3	0.12228324
247	0x3d915b5e	0.07097505
248	0x3efcb74a	0.49358588
249	0x3dde3440	0.1084981
250	0x3e42634a	0.18983188
251	0x3e17c339	0.14820565
252	0x3ec343c6	0.38137645
253	0x3e71d2ff	0.23615645
254	0x3e94d7a5	0.29070774
255	0x3e0d5f2e	0.1380584

model.fc2.bias f4 [32]
0	0xbc8ce84c	-0.017200612
1	0x4091a49e	4.551345
2	0xbdb2de2f	-0.087337844
3	0x4092f508	4.592411
4	0xbe502210	-0.20325494
5	0xbe118108	-0.14209378
6	0xbe57624c	-0.21033591
7	0x408e44df	4.445907
8	0x40939b33	4.612695
9	0xbc8753b8	-0.016519412
10	0xbe14d0f6	-0.14532837
11	0xbdd9f44f	-0.10642301
12	0x408fd2ff	4.4945064
13	0x409097dc	4.5185375
14	0xbb8c5d10	-0.004283555
15	0x4090643b	4.512235
16	0xbdc37080	-0.09542942
17	0xbdb38a07	-0.08766561
18	0xbde8c9eb	-0.11366638
19	0x408e1073	4.439508
20	0x40905e5b	4.511518
21	0xbe45682e	-0.19278023
22	0x4095c3d5	4.6801553
23	0x408e5d8b	4.448919
24	0x40915a3d	4.5422654
25	0x408d6350	4.418373
26	0xbe4f050c	-0.20216769
27	0xbe0d99dc	-0.13828224
28	0x4090239d	4.5043473
29	0x3c7eede8	0.015559651
30	0x408e556c	4.4479275
31	0x4093d7bd	4.6200852

model.fc3.weight f4 [1, 32]
0	0x3c175fa0	0.009239107
1	0x3f1d229e	0.61380947
2	0x3dca71cb	0.098849855
3	0x3f1b6976	0.60707796
4	0x3d108254	0.03528054
5	0x3c29cf38	0.010364346
6	0xba08c180	-0.0005216822
7	0x3f2a0b89	0.6642385
8	0x3f220f16	0.6330427
9	0xbbba3dc0	-0.0056836307
10	0x3d73649e	0.059422128
11	0x3d3a3da0	0.045468926
12	0x3f01a1e3	0.50637645
13	0x3f0e6198	0.55617666
14	0xbc8bfb28	-0.017087534
15	0x3f244ef9	0.64183
16	0xbc87b07c	-0.016563646
17	0x39dffb00	0.00042720884
18	0xbd102cba	-0.035198905
19	0x3f174e73	0.5910408
20	0x3f1d0aa6	0.61344373
21	0x39c40a00	0.00037391484
22	0x3f1cf78f	0.61315244
23	0x3f26ccec	0.65156436
24	0x3f141b6d	0.5785435
25	0x3f1970c1	0.59937674
26	0xbc843f4c	-0.016143464
27	0xbd27f6d6	-0.041006885
28	0x3f18198d	0.5941399
29	0xbd1134d0	-0.035450757
30	0x3f1dc262	0.6162473
31	0x3f29be8c	0.66306376

square_avg f4 [64, 4]
0	0x20f37719	4.1244613e-19
1	0x20aebb73	2.960079e-19
2	0x1fcf73a8	8.785925e-20
3	0x20aeeaf0	2.9632215e-19
4	0x432318a0	163.09619
5	0x4317f480	151.95508
6	0x439d842c	315.0326
7	0x436f0de2	239.05423
8	0x443a21bd	744.52716
9	0x4483ee5e	1055.449
10	0x4447fbe9	799.9361
11	0x4465612e	917.51843
12	0x43c2e745	389.8068
13	0x43d2f946	421.94745
14	0x43f0daeb	481.7103
15	0x43f1fbaf	483.96628
16	0x45c84eec	6409.865
17	0x460ea1fa	9128.494
18	0x460c094f	8962.327
19	0x45d6937f	6866.437
20	0x43a58e03	331.10947
21	0x43f84908	496.57056
22	0x43e2d4e6	453.66327
23	0x43baff9d	373.99698
24	0x443f5914	765.39185
25	0x44816f3e	1035.4763
26	0x446e7ca8	953.94775
27	0x445c7cfd	881.95294
28	0x440d0ebe	564.23035
29	0x441f04c4	636.07446
30	0x4461ee15	903.72003
31	0x441adcae	619.4481
32	0x42d1d436	104.914474
33	0x42afb9a2	87.862564
34	0x42b61add	91.05247
35	0x429d30a3	78.59499
36	0x43a73f11	334.4927
37	0x43d1abfc	419.34363
38	0x44052560	532.584
39	0x4409d859	551.38043
40	0x43ac8ec6	345.11542
41	0x4424a741	658.61334
42	0x43ae844b	349.03354
43	0x43c4c61e	393.5478
44	0x43342b24	180.16852
45	0x4390fcc5	289.97476
46	0x438bd73d	279.68155
47	0x43762b03	246.16801
48	0x438490f6	265.1325
49	0x43881816	272.18817
50	0x43b3ef5e	359.87006
51	0x4388d5d9	273.6707
52	0x44737457	973.8178
53	0x44bcca67	1510.3251
54	0x4516ae50	2410.8945
55	0x44b6df0c	1462.9702
56	0x432c6332	172.38748
57	0x430b6ddb	139.42912
58	0x438b6fcc	278.8734
59	0x43576b9c	215.42035
60	0x428f9d2e	71.80699
61	0x428549a6	66.643845
62	0x42858692	66.76283
63	0x429b284d	77.57871
64	0x434d396d	205.22432
65	0x43882868	272.31567
66	0x43a21c7e	324.2226
67	0x4346c168	198.7555
68	0x42a7d770	83.92078
69	0x4266b366	57.675194
70	0x426fcb9b	59.948833
71	0x42eee495	119.44645
72	0x442a6c33	681.6906
73	0x4481af6e	1037.4822
74	0x443dc2fa	759.0465
75	0x441e5e83	633.47675
76	0x4421e751	647.6143
77	0x448ec67f	1142.203
78	0x447b7d9b	1005.9626
79	0x4483ef83	1055.4847
80	0x43bd37c6	378.43573
81	0x43ea55d3	468.6705
82	0x4409a5a0	550.5879
83	0x43f8c92a	497.5716
84	0x43a49d6f	329.22995
85	0x43fdbe4e	507.48676
86	0x43cffb54	415.9635
87	0x43a6df4c	333.7445
88	0x43681a3c	232.10248
89	0x43adff8e	347.99652
90	0x43296d82	169.42776
91	0x43805af0	256.71045
92	0x431c851a	156.51993
93	0x43746fc6	244.43661
94	0x42ec7812	118.23451
95	0x43270fcb	167.06169
96	0x43a3fa70	327.95654
97	0x43c7ecbc	399.8495
98	0x43d5b4a2	427.4112
99	0x43e65330	460.6499
100	0x43a8bdee	337.48383
101	0x4420e875	643.63214
102	0x43ee12de	476.1474
103	0x43deb838	445.4392
104	0x4386a110	269.2583
105	0x4417c2de	607.0448
106	0x43a3c325	327.52457
107	0x4393eca4	295.84875
108	0x439082b9	289.02127
109	0x43cd1492	410.1607
110	0x439d84f6	315.03876
111	0x43a411d0	328.13916
112	0x435024c7	208.14366
113	0x43bfd51c	383.66492
114	0x438e7576	284.91766
115	0x438a013e	276.0097
116	0x43d68e2c	429.11072
117	0x440b50bc	557.2615
118	0x441480d3	594.0129
119	0x44061ba4	536.4319
120	0x44240968	656.147
121	0x448d1f72	1128.9827
122	0x4446879d	794.11896
123	0x443e8e15	762.22003
124	0x43b45829	360.68875
125	0x44594b8c	869.1804
126	0x43c30245	390.01773
127	0x4403724b	525.7858
128	0x42a92c36	84.58635
129	0x42b07c27	88.242485
130	0x42913238	72.59808
131	0x42a02128	80.06476
132	0x43fe0606	508.04706
133	0x44467e98	793.978
134	0x4448742d	801.81525
135	0x443c4b3a	753.1754
136	0x43a69dd4	333.23303
137	0x4416e267	603.53754
138	0x43c8da2e	401.70453
139	0x43e340a8	454.50513
140	0x4391ad2e	291.35297
141	0x43c20eaa	388.11456
142	0x439b3ac8	310.45923
143	0x43abd02c	343.62634
144	0x439cd640	313.67383
145	0x440f0ca3	572.19745
146	0x43dcb18d	441.38712
147	0x43b28da4	357.10657
148	0x442ca972	690.6476
149	0x4428376d	672.866
150	0x444fad12	830.7042
151	0x4412e4e7	587.5766
152	0x44a5b514	1325.6587
153	0x45184100	2436.0625
154	0x44c7eda1	1599.4259
155	0x44d6bd73	1717.9203
156	0x424c04a6	51.00454
157	0x42863ed0	67.12268
158	0x42029abe	32.651115
159	0x4227415f	41.81384
160	0x433e8c6c	190.54852
161	0x436da4d3	237.64384
162	0x43966a1d	300.829
163	0x435e9042	222.5635
164	0x439c6875	312.81607
165	0x43b4492b	360.57162
166	0x43e2e7d5	453.8112
167	0x43a92b91	338.34036
168	0x430c7e33	140.49297
169	0x42f50522	122.510025
170	0x42bc8dbb	94.27682
171	0x42d32fdb	105.59347
172	0x42120a4e	36.510063
173	0x41eaee04	29.366219
174	0x41ce6984	25.801521
175	0x42139d7d	36.903797
176	0x435302e4	211.01129
177	0x433e27b5	190.1551
178	0x430935d9	137.21034
179	0x432a10cd	170.06563
180	0x43c6bdd0	397.4829
181	0x441844b9	609.0738
182	0x4423747f	653.82025
183	0x43fe66a5	508.8019
184	0x4360dd80	224.86523
185	0x434591d8	197.5697
186	0x43cf19e2	414.2022
187	0x43a95763	338.6827
188	0x44052d0c	532.70386
189	0x444ea64a	826.59827
190	0x44786d26	993.70544
191	0x444818ba	800.38635
192	0x42b56f5f	90.71752
193	0x429c589f	78.17309
194	0x425dd652	55.459297
195	0x4257ba6f	53.932064
196	0x43d26bc8	420.84204
197	0x445287f5	842.1243
198	0x43fa3e2e	500.48578
199	0x43e732e1	462.3975
200	0x43d0b9a4	417.45032
201	0x43bef9b8	381.95093
202	0x444362f6	781.54626
203	0x443d6f33	757.7375
204	0x43dca971	441.32376
205	0x441010c9	576.26227
206	0x440d912a	566.2682
207	0x43d576bb	426.92758
208	0x4414f881	595.8829
209	0x44960c04	1200.3755
210	0x444d8b74	822.17896
211	0x443f9008	766.2505
212	0x439be17e	311.76166
213	0x43ebd488	471.6604
214	0x43b16d40	354.85352
215	0x43a1b9a0	323.4502
216	0x442033d5	640.8099
217	0x440d899c	566.15015
218	0x444551db	789.279
219	0x443de4e9	759.5767
220	0x4395c33c	299.52527
221	0x43b77d5c	366.97937
222	0x4400ad20	514.7051
223	0x43d3c46c	423.53455
224	0x42be6ff7	95.21868
225	0x429af7ec	77.48422
226	0x42a9a21c	84.81662
227	0x432f0009	175.00014
228	0x43b8848b	369.0355
229	0x441c7140	625.76953
230	0x441fbfb4	638.99536
231	0x43fd2513	506.28964
232	0x43cee493	413.78574
233	0x43eab0da	469.38165
234	0x4410c479	579.0699
235	0x43f214ed	484.16348
236	0x432e32fe	174.19919
237	0x433da427	189.64122
238	0x42e367d3	113.70278
239	0x433891c5	184.56941
240	0x441b935c	622.3025
241	0x44233cd9	652.95074
242	0x447cf6eb	1011.8581
243	0x442b6333	685.55
244	0x4383c2e7	263.52267
245	0x43d780e8	431.00708
246	0x43a9d60d	339.67227
247	0x438ccf73	281.6207
248	0x443e8ca6	762.19763
249	0x441ffc44	639.94165
250	0x44722617	968.59515
251	0x44616b78	901.6792
252	0x43fab007	501.3752
253	0x44067905	537.8909
254	0x4417c2e0	607.0449
255	0x43d540a4	426.505

square_avg f4 [64]
0	0x20a2e7ee	2.7597346e-19
1	0x435eb74b	222.71599
2	0x44668818	922.12646
3	0x440a8487	554.07074
4	0x45c8c759	6424.9185
5	0x43a7b823	335.43857
6	0x4486cc0e	1078.3767
7	0x44461bde	792.4354
8	0x42b086e5	88.263466
9	0x4400c5fd	515.09357
10	0x43b3ab14	359.33655
11	0x436cca6b	236.7907
12	0x43b8c161	369.51077
13	0x44aece2f	1398.4432
14	0x43489966	200.59921
15	0x429fa16c	79.81528
16	0x43889757	273.18234
17	0x42ddd905	110.92387
18	0x44658774	918.11646
19	0x44536525	845.5804
20	0x43e7bd18	463.4773
21	0x43c1a352	387.27594
22	0x43795263	249.32182
23	0x432f1988	175.09973
24	0x44088df6	546.21814
25	0x43d3c24c	423.51794
26	0x4398439f	304.5283
27	0x43a6e0c9	333.75613
28	0x43a130ba	322.38068
29	0x441074da	577.8258
30	0x446210ff	904.26556
31	0x43b2b69b	357.4266
32	0x42abefb0	85.96814
33	0x44468bea	794.18616
34	0x43d411a3	424.1378
35	0x43ae1927	348.1965
36	0x43ad2ab3	346.3336
37	0x441b8441	622.06647
38	0x44c4d680	1574.7031
39	0x42339639	44.8967
40	0x437f792c	255.47333
41	0x43f12172	482.2613
42	0x42e25f14	113.1857
43	0x421e7bb9	39.620823
44	0x43369ae7	182.60509
45	0x441ae23f	619.5351
46	0x439f2966	318.32343
47	0x44345c22	721.4396
48	0x4267a26f	57.908627
49	0x43fbfce5	503.97574
50	0x44303f71	704.9913
51	0x441af84c	619.87964
52	0x44657c40	917.9414
53	0x439e063b	316.04868
54	0x44315014	709.2512
55	0x43eb46b4	470.55237
56	0x4322f72c	162.96552
57	0x4413a0e8	590.51416
58	0x4418a980	610.64844
59	0x4343b1a7	195.69395
60	0x4459581a	869.3766
61	0x43c535ac	394.4193
62	0x4481f853	1039.7601
63	0x43fbe681	503.8008

square_avg f4 [32, 64]
0	0x20c35ea9	3.3096926e-19
1	0x231e50c0	8.582297e-18
2	0x21d32f30	1.4310407e-18
3	0x21e6b6be	1.5633778e-18
4	0x1acd5867	8.4928834e-23
5	0x20b42f95	3.0524673e-19
6	0x2399b8aa	1.6666502e-17
7	0x21deb89e	1.5092173e-18
8	0x213fa71e	6.4934495e-19
9	0x2214278d	2.0078678e-18
10	0x21762639	8.339863e-19
11	0x2204f691	1.8019867e-18
12	0x2362867e	1.2279964e-17
13	0x23919980	1.5785941e-17
14	0x22a9eeac	4.6060245e-18
15	0x2049e8ac	1.7102347e-19
16	0x2020c96d	1.3619173e-19
17	0x1af2f507	1.0048472e-22
18	0x1d5d6f88	2.9306767e-21
19	0x21856d70	9.041398e-19
20	0x1ef2ffd1	2.572855e-20
21	0x232b9dc7	9.303339e-18
22	0x238d8518	1.5343618e-17
23	0x1ea973cd	1.7941465e-20
24	0x2265caac	3.114258e-18
25	0x213c3cad	6.377718e-19
26	0x1e828822	1.3820589e-20
27	0x231047d4	7.821466e-18
28	0x2129f252	5.7580135e-19
29	0x22a5b071	4.4910154e-18
30	0x22d4b9b8	5.7659353e-18
31	0x23773312	1.3400711e-17
32	0x1eb408c0	1.906186e-20
33	0x21c8bd7e	1.3602685e-18
34	0x23446df4	1.0648465e-17
35	0x23510b73	1.1332337e-17
36	0x21dddee5	1.5034542e-18
37	0x2179c065	8.4619114e-19
38	0x213598b9	6.152731e-19
39	0x20750922	2.0755329e-19
40	0x2297c9c5	4.1142264e-18
41	0x20dc90d7	3.7365297e-19
42	0x1d0181b5	1.7140065e-21
43	0x21f692ef	1.6708501e-18
44	0x23b55c41	1.966313e-17
45	0x224bd7ac	2.7625806e-18
46	0x222b2e70	2.3199405e-18
47	0x21d37139	1.4327886e-18
48	0x00000000	0.0
49	0x23232411	8.843885e-18
50	0x1ec0ac14	2.039996e-20
51	0x1fca0a60	8.556749e-20
52	0x22a77009	4.5384063e-18
53	0x23c91fae	2.180588e-17
54	0x206f1c58	2.0253466e-19
55	0x228f42f3	3.8831113e-18
56	0x1f90396b	6.108136e-20
57	0x21f26556	1.6425381e-18
58	0x22658957	3.1107994e-18
59	0x20dc4b84	3.7319422e-19
60	0x2297c4ee	4.113714e-18
61	0x21a8511d	1.1405593e-18
62	0x23e83851	2.5177341e-17
63	0x22094a4f	1.86063e-18
64	0x13843382	3.3372275e-27
65	0x41e06ff2	28.05466
66	0x42c4915d	98.28391
67	0x428e021a	71.004105
68	0x40726f91	3.7880595
69	0x428afb95	69.49137
70	0x42ddebf3	110.96084
71	0x429234a2	73.1028
72	0x4192afd3	18.335852
73	0x425ccae2	55.198128
74	0x422b42e4	42.815323
75	0x4269462c	58.318527
76	0x42a664ff	83.19726
77	0x4220036d	40.003345
78	0x41aefba4	21.872871
79	0x41af8f42	21.94495
80	0x423ed867	47.71133
81	0x415c3b5a	13.76449
82	0x42b49566	90.291794
83	0x42de861a	111.26192
84	0x420a0dd3	34.5135
85	0x429382ee	73.75572
86	0x41c0187e	24.01196
87	0x41e3bca9	28.46712
88	0x42944d19	74.15058
89	0x42a609e3	83.01931
90	0x428d3117	70.59588
91	0x42749501	61.14551
92	0x42303ea2	44.061165
93	0x42f12be4	120.585724
94	0x42c322b6	97.567795
95	0x4269f8dd	58.49303
96	0x417b3a5e	15.70175
97	0x4284893f	66.26806
98	0x4296475b	75.139366
99	0x42b8c5a2	92.386
100	0x4259df8f	54.46832
101	0x42ba9bb9	93.304146
102	0x43011eeb	129.12077
103	0x40d8bb4c	6.7728634
104	0x4283073a	65.514114
105	0x42849e40	66.30908
106	0x414296ca	12.161814
107	0x41321634	11.130421
108	0x4197e264	18.985542
109	0x4291b8c1	72.86085
110	0x41d4b61b	26.588919
111	0x426ff403	59.988293
112	0x410cc4dd	8.798062
113	0x42bb5934	93.674225
114	0x420d09c5	35.25954
115	0x42b628d6	91.07976
116	0x42eee6e0	119.45093
117	0x428c0890	70.01672
118	0x427757e7	61.835842
119	0x42650be6	57.26162
120	0x41940409	18.50197
121	0x429755ba	75.667435
122	0x4263443a	56.816628
123	0x41ce6488	25.799088
124	0x42fce78e	126.452255
125	0x423cf159	47.23569
126	0x42c37421	97.726814
127	0x42a4f731	82.482796
128	0x1bbb1293	3.0948558e-22
129	0x1ea1aa63	1.7117008e-20
130	0x1e168883	7.969164e-21
131	0x1e1c3f1b	8.271621e-21
132	0x1c605855	7.422955e-22
133	0x1c02b5b3	4.3248233e-22
134	0x1edd8418	2.3453918e-20
135	0x1c01db8a	4.2966267e-22
136	0x1de17c90	5.96858e-21
137	0x1e32fb95	9.4752675e-21
138	0x1cdce75a	1.4618182e-21
139	0x1eb23e52	1.8872258e-20
140	0x1e3be3be	9.9467936e-21
141	0x1eeaf85b	2.4878431e-20
142	0x1de96d7d	6.1787795e-21
143	0x1d71440b	3.1931262e-21
144	0x1d8ce28b	3.729193e-21
145	0x1caaf438	1.1312785e-21
146	0x1e86b1fd	1.4261416e-20
147	0x1e458c7f	1.0458147e-20
148	0x1a16be1f	3.117285e-23
149	0x1e4975d3	1.0665217e-20
150	0x1ee11153	2.3829967e-20
151	0x1e184ee5	8.063128e-21
152	0x1e84842d	1.403071e-20
153	0x1c95d81b	9.915855e-22
154	0x1c3973b7	6.1360923e-22
155	0x1ee9123d	2.4677378e-20
156	0x1e0839c5	7.2117265e-21
157	0x1e1e2e0f	8.373975e-21
158	0x1f098a13	2.912509e-20
159	0x1ecbc87b	2.1576378e-20
160	0x1c0bee76	4.6299446e-22
161	0x1d258d14	2.1910504e-21
162	0x1f0df1e1	3.005799e-20
163	0x1f0abc49	2.9378383e-20
164	0x1e0053ca	6.793591e-21
165	0x1d261a9a	2.198367e-21
166	0x1c6183de	7.461669e-22
167	0x1ca92aee	1.1194579e-21
168	0x1e6f24a7	1.2660134e-20
169	0x1d32bc1f	2.365536e-21
170	0x1cca06a0	1.3368951e-21
171	0x1c53091c	6.9825817e-22
172	0x1d83da69	3.4901242e-21
173	0x1d674000	3.0605683e-21
174	0x1e0a678e	7.327074e-21
175	0x1e037c24	6.960754e-21
176	0x1c05dfab	4.4295093e-22
177	0x1f7e0e9a	5.379867e-20
178	0x1b69568c	1.9301273e-22
179	0x1e0f04b1	7.571327e-21
180	0x1ebd6dc6	2.0056555e-20
181	0x1ef66cbd	2.6091236e-20
182	0x1c863726	8.881632e-22
183	0x1d9ccf65	4.1507297e-21
184	0x1bb0c333	2.9242902e-22
185	0x1e2efab7	9.26333e-21
186	0x1e980655	1.6096245e-20
187	0x1d8acd7f	3.6740774e-21
188	0x1efdd440	2.6875201e-20
189	0x1e14e12b	7.8816184e-21
190	0x1ece534b	2.1845548e-20
191	0x1ba7dc87	2.7770345e-22
192	0x1e8eb83d	1.5111034e-20
193	0x421948a4	38.32094
194	0x42f40895	122.01676
195	0x42bbc853	93.89126
196	0x40998aee	4.798209
197	0x42c328a6	97.57939
198	0x42fd948b	126.79012
199	0x42b51b4f	90.55334
200	0x419ceb94	19.615028
201	0x4263b3dc	56.925644
202	0x424c0776	51.007286
203	0x428d1b0c	70.552826
204	0x42bac4fd	93.38474
205	0x424095ce	48.146294
206	0x41c0f2e4	24.118599
207	0x41ce11ff	25.758787
208	0x42516906	52.352562
209	0x416d8199	14.84414
210	0x42ed75a0	118.72974
211	0x42db4103	109.626976
212	0x421621e2	37.53309
213	0x42a01ffe	80.062485
214	0x41fa75ac	31.307457
215	0x41f86fda	31.054615
216	0x42b4c277	90.379814
217	0x42cb59a3	101.67507
218	0x42b3cf62	89.905045
219	0x428ad8ad	69.423195
220	0x425fe048	55.969025
221	0x431f8c98	159.5492
222	0x42ed1117	118.53338
223	0x42899005	68.78129
224	0x41a6671e	20.80035
225	0x42a1965b	80.79366
226	0x42bcd688	94.41901
227	0x42c2cbe0	97.39819
228	0x4280c575	64.38566
229	0x42f60757	123.014336
230	0x4333c276	179.75961
231	0x40fd58ea	7.917104
232	0x42a17e5e	80.74681
233	0x4297e0ea	75.939285
234	0x417175bb	15.091243
235	0x4163f9c1	14.248475
236	0x41ae7e3d	21.81164
237	0x42cae314	101.44351
238	0x41f3aa3f	30.458128
239	0x42a5078a	82.514725
240	0x41249d4e	10.288404
241	0x42f1fecb	120.99764
242	0x4236e89e	45.727165
243	0x42daedab	109.464195
244	0x43026758	130.40369
245	0x42a4dfe4	82.43729
246	0x42aaf237	85.473076
247	0x428ba08d	69.813576
248	0x41a45c2d	20.545008
249	0x42bed4e9	95.41584
250	0x42964db2	75.15175
251	0x41e76418	28.923874
252	0x431ac44f	154.76683
253	0x425fe777	55.97604
254	0x42d5d2fb	106.91207
255	0x42cc67ba	102.20259

square_avg f4 [32]
0	0x2422d783	3.5310696e-17
1	0x42911ac4	72.55228
2	0x1fe093f5	9.5112464e-20
3	0x42b7d265	91.91093
4	0x2330dae9	9.587335e-18
5	0x25145a5f	1.2867573e-16
6	0x261a0bdc	5.3445556e-16
7	0x42c0984e	96.29747
8	0x42bfa63a	95.82466
9	0x25a5ee5b	2.8784453e-16
10	0x24af3ff6	7.6002506e-17
11	0x259f491d	2.7631647e-16
12	0x428bd07c	69.907196
13	0x42a5c56c	82.88559
14	0x26996757	1.0644518e-15
15	0x42cb2350	101.56897
16	0x264bf08e	7.0755786e-16
17	0x25df8462	3.877404e-16
18	0x2662048b	7.841566e-16
19	0x42b6bca5	91.36845
20	0x42b1a658	88.82489
21	0x2670edf1	8.35892e-16
22	0x428343a5	65.63212
23	0x42bd7f49	94.748604
24	0x4294f4e0	74.47827
25	0x429daffb	78.84371
26	0x262377c7	5.6714314e-16
27	0x2627aa0b	5.8170215e-16
28	0x42ab78fa	85.73628
29	0x262ff4b0	6.1046935e-16
30	0x42cc15b6	102.042404
31	0x42c8e2d9	100.44306

square_avg f4 [1, 32]
0	0x248523fd	5.774052e-17
1	0x46d12403	26770.006
2	0x284988e9	1.1187429e-14
3	0x46fd0ca6	32390.324
4	0x23588c2c	1.1739066e-17
5	0x266eb44b	8.281718e-16
6	0x273b9839	2.6033983e-15
7	0x46e47573	29242.725
8	0x46ec6791	30259.783
9	0x269cc7bb	1.0878812e-15
10	0x27469ce8	2.7563079e-15
11	0x27ab80f6	4.7601854e-15
12	0x46b4614b	23088.646
13	0x4717e454	38884.33
14	0x27bd706d	5.257993e-15
15	0x46ef28da	30612.426
16	0x27064eb1	1.8638894e-15
17	0x270d797c	1.9633538e-15
18	0x26a64557	1.1537358e-15
19	0x46be0860	24324.188
20	0x46bfdb08	24557.516
21	0x289924ce	1.7002374e-14
22	0x46c77dc8	25534.89
23	0x46ce45ca	26402.895
24	0x46fc7328	32313.578
25	0x46aee2ba	22385.363
26	0x27a0882a	4.455655e-15
27	0x27188e96	2.1171533e-15
28	0x47105847	36952.277
29	0x26b081f7	1.224768e-15
30	0x46f7311e	31640.559
31	0x46fa4674	32035.227
