logs/wage_model/version_3/checkpoints/epoch=99-step=3600.ckpt (torch, 27562 bytes, 10 tensors)

model.fc1.weight f4 [64, 4]
0	0xbda1d536	-0.07901995
1	0x3da4e3c2	0.08051254
2	0xbf059fea	-0.52197134
3	0x3f595c19	0.84906155
4	0x3e322144	0.17395502
5	0x3d982f72	0.074309245
6	0x3dacbc42	0.08434345
7	0x3f2473ee	0.64239395
8	0x3e4c7e54	0.19970065
9	0x3cb808c0	0.02246511
10	0x3e932a2f	0.2874312
11	0x3cbf1f4e	0.023330357
12	0xbdce6e2c	-0.10079607
13	0x3deb5d5e	0.11492418
14	0x3e7948d4	0.24344188
15	0xbd108163	-0.035279643
16	0xbdd7d41c	-0.105385035
17	0xbfda33ae	-1.7047021
18	0x3f15b5bd	0.58480436
19	0xbd0d09b0	-0.034433067
20	0xbe4d433d	-0.2004518
21	0x3dd5ba45	0.10435919
22	0xbe5bcf59	-0.21465816
23	0xbe1cd420	-0.15315294
24	0x3dce30bc	0.10067889
25	0x3db1a85e	0.086746916
26	0x3e953107	0.29138967
27	0x3e883690	0.26604128
28	0x3e24841a	0.16066018
29	0x3e74ac0e	0.23893759
30	0x3f0fd18e	0.5617913
31	0xbec686d8	-0.38774753
32	0xbe35ba5c	-0.17746872
33	0x3e446e14	0.19182616
34	0xbecd667d	-0.40117255
35	0x3af5360c	0.0018708124
36	0x3cc0d053	0.023536837
37	0x3dcc3262	0.09970547
38	0x3ed3ac85	0.4134256
39	0x3f329ffb	0.6977536
40	0xbeb64e89	-0.35606793
41	0x3d8a35a2	0.06748511
42	0x3ee99058	0.45617938
43	0xbe02abf0	-0.12760901
44	0x3e45e4c9	0.19325556
45	0xbd9552e7	-0.07291203
46	0x3e950245	0.29103294
47	0x3f096cef	0.53681844
48	0x3d24de34	0.040250972
49	0x3db91d72	0.090388194
50	0x3e6c728a	0.23090568
51	0x3e02500c	0.12725848
52	0x3e221922	0.158299
53	0x3e2f2bba	0.17106524
54	0x3f121ce0	0.5707531
55	0x3f3e9496	0.74445474
56	0x3c63a0be	0.013893304
57	0x3e2eebdb	0.17082159
58	0x3e11181f	0.14169358
59	0x3f226be8	0.634459
60	0xbe64061e	-0.22267959
61	0x3e1c0dde	0.15239665
62	0xbed8ec2f	-0.42367694
63	0xbd9bfc30	-0.0761646
64	0x3c7db6a0	0.015485436
65	0x3d77af20	0.060469747
66	0x3d8c8f90	0.0686332
67	0x3d016adf	0.03159606
68	0x3d5cda82	0.053919323
69	0xbd9444c3	-0.07239678
70	0xbf19f5bb	-0.6014058
71	0x3f6722a7	0.9028725
72	0x3c81bec8	0.015838042
73	0x3db4562f	0.08805501
74	0x3e75b3cc	0.23994368
75	0xbd216c0e	-0.03940969
76	0xbebe32cc	-0.3714813
77	0x3e423f4f	0.18969463
78	0x3ee8ca59	0.4546688
79	0x3ead6218	0.33863902
80	0x3dbbdf19	0.09173412
81	0x3d4cbdc6	0.04998567
82	0x3ec6a8e0	0.38800716
83	0x3f3d68c4	0.73987985
84	0xbe422127	-0.18957959
85	0x3e411cc8	0.18858635
86	0x3df755b8	0.120768964
87	0x3dc75ec8	0.09734875
88	0xbca819c0	-0.020520091
89	0x3e47fca9	0.19529976
90	0x3e936fa6	0.28796118
91	0x3dcaa531	0.09894789
92	0x3da2da33	0.079517744
93	0x3e6c6230	0.2308433
94	0x3f0c0139	0.54689366
95	0xbedf8128	-0.43653226
96	0x3d08f8c4	0.033440366
97	0x3c924c32	0.017858598
98	0x3eab0b80	0.3340721
99	0xbdcb3d4e	-0.09923802
100	0xbdaa67ec	-0.08320603
101	0x3e703724	0.23458534
102	0x3f0e1faf	0.55517095
103	0xbe5ff8f3	-0.2187231
104	0x3e6e4978	0.23270214
105	0x3dc99a80	0.09843922
106	0x3e69741e	0.22798201
107	0x3de428d2	0.11140598
108	0x3d4f1b9f	0.05056345
109	0x3e4ce741	0.20010091
110	0x3dce5bca	0.10076101
111	0x3dcd467f	0.10023212
112	0x3de741fe	0.11291884
113	0x3dd2cddc	0.10293171
114	0x3c3084b3	0.010773825
115	0xbde94f90	-0.113921285
116	0xbda77a5f	-0.08177637
117	0x3e866660	0.2624998
118	0x3e8229f9	0.25422648
119	0x3dcdbe80	0.100461006
120	0x3cb6ee94	0.02233056
121	0x3e16913a	0.14703837
122	0x3e6d6dba	0.23186389
123	0x3dd658a4	0.104661256
124	0x3d332373	0.04373498
125	0x3eb3fc5e	0.35153478
126	0x3e0f94c7	0.14021598
127	0xbd0a86c6	-0.033819936
128	0x3ddcb79a	0.10777207
129	0x3e65295c	0.22379059
130	0x3ac5210c	0.0015039756
131	0xbf30c930	-0.6905699
132	0xbe23d612	-0.1599963
133	0x3dc3db00	0.09563255
134	0x3e890f92	0.26769692
135	0xbe8386e4	-0.2568885
136	0xba6d2da0	-0.0009047631
137	0x3e7c0149	0.24609865
138	0x3e7ec686	0.24880418
139	0xbd7cb019	-0.061691377
140	0xbcdfa29f	-0.027299223
141	0x3d8c1966	0.06840782
142	0x3e68472c	0.226834
143	0x3c1c7172	0.009548532
144	0xbd5b4632	-0.05353374
145	0x3e6ab4bd	0.22920509
146	0x3ee74056	0.45166272
147	0xbe7022a9	-0.23450722
148	0x3e1022e2	0.14075807
149	0x3dfa725c	0.122288436
150	0x3e7a1fb0	0.2442615
151	0x3e2d3003	0.16912846
152	0x3b284508	0.0025675911
153	0x3e13f9ad	0.14450713
154	0x3f3fee65	0.74973136
155	0xbd8d4e16	-0.06899659
156	0xbe353672	-0.1769655
157	0x3e0ea008	0.13928235
158	0xbbe888d4	-0.0070963893
159	0xbf2cc504	-0.6748812
160	0xbd1b6303	-0.03793622
161	0x3dfd352f	0.123636596
162	0x3e08a2bc	0.13343328
163	0x3e0764f0	0.13222098
164	0xbc4e7d11	-0.01260306
165	0x3cf5e24a	0.03001513
166	0x3e35ab6d	0.17741175
167	0xbdad8d67	-0.08474236
168	0xbdcd383e	-0.10020493
169	0x3e0f1fc7	0.13976966
170	0x3bd44138	0.0064775012
171	0xbf1b43ae	-0.60650146
172	0xbd5cc804	-0.053901687
173	0xbd4afef4	-0.04955955
174	0xbe04b501	-0.12959673
175	0xbf114860	-0.5675106
176	0xbd1997cd	-0.037498284
177	0x3d5b8c90	0.053600848
178	0x3d605a3c	0.054773554
179	0xbf3b6609	-0.7320257
180	0x3e803c89	0.25046185
181	0xbd3ef836	-0.04662343
182	0x3efb9ad6	0.49141568
183	0x3ef31e95	0.4748427
184	0x3e50e193	0.2039855
185	0x3ddd7918	0.108141124
186	0x3e2aa770	0.16665435
187	0x3f2e3066	0.680426
188	0x3e289827	0.16464292
189	0x3c072948	0.008249588
190	0x3f04e345	0.51909286
191	0x3f0b5451	0.5442553
192	0xbd0d8a31	-0.034555618
193	0x3e177388	0.14790165
194	0xbd794240	-0.060854197
195	0xbf2fb6d3	-0.6863834
196	0x3e446108	0.1917764
197	0x3ea78bca	0.32723838
198	0x3e28b874	0.16476613
199	0xbacd7a60	-0.0015676729
200	0x3dc86eb8	0.09786743
201	0x3e18c9fe	0.14920804
202	0x3e5c2a39	0.21500482
203	0x3f4591bc	0.771755
204	0x3d6bb5c6	0.0575464
205	0x3e4f802f	0.20263742
206	0x3e5485ac	0.20754117
207	0xbd6dd379	-0.058063004
208	0x3e76b768	0.24093401
209	0x3dce5f16	0.1007673
210	0x3e56a38a	0.20960823
211	0x3e1dff3b	0.15429394
212	0x3da49f22	0.08038165
213	0x3e9bdc30	0.30441427
214	0x3f0433cd	0.5164154
215	0xbed0fcec	-0.40817964
216	0xbd18fa85	-0.03734829
217	0x3e0f8dfa	0.14019004
218	0x3f0386b1	0.513774
219	0x3f569786	0.83824956
220	0xbe822b47	-0.25423643
221	0x3c731dbc	0.014838632
222	0x3edb06f6	0.42778748
223	0x3d166e6d	0.036726404
224	0x3e8d6a32	0.27620083
225	0x3e37e747	0.17959319
226	0xbda5bb7b	-0.080924
227	0x3f4e3dcd	0.8056305
228	0x3d33ea5c	0.043924674
229	0x3e5403a8	0.2070452
230	0x3dbd3017	0.09237688
231	0xbd8a1e56	-0.06744067
232	0xbd8f9763	-0.070112966
233	0x3cec6ab7	0.02885948
234	0x3da31029	0.07962067
235	0x3c300600	0.010743618
236	0x3dbbc162	0.09167744
237	0x3e3742ed	0.17896624
238	0xbf0c7c66	-0.54877317
239	0xbe6e269c	-0.23256916
240	0x3def3e84	0.11681846
241	0x3e00dac1	0.12583448
242	0x3ec3fc50	0.38278437
243	0xbcb59af2	-0.02216861
244	0xbe8ed822	-0.2789927
245	0x3e67d2e5	0.22639044
246	0xbead5b5b	-0.3385876
247	0xbc949152	-0.0181357
248	0x3e2a752b	0.16646259
249	0x3d9d95e5	0.07694606
250	0x3daaf12c	0.08346781
251	0x3d07ce5f	0.033155795
252	0x3e684295	0.22681649
253	0x3e550d08	0.20805752
254	0x3f1f2c2e	0.6217679
255	0xbecd7ca0	-0.40134144

model.fc1.bias f4 [64]
0	0xbeaec839	-0.34137133
1	0xbe5131de	-0.20429179
2	0x3f3b287c	0.7310865
3	0x3f1a6eae	0.60325134
4	0xbfe433b4	-1.7828279
5	0x3f0c9742	0.549183
6	0x3f251719	0.6448837
7	0x3ebb954c	0.36637342
8	0x3ef4617a	0.4773062
9	0xbe7b4c63	-0.24540858
10	0x3eb96954	0.3621317
11	0xbc4bea1e	-0.012445955
12	0x3f0908e4	0.5352919
13	0xbef9b498	-0.48770595
14	0xbea376a7	-0.31926462
15	0x3f053cd6	0.52045953
16	0x3f0a08b9	0.5391956
17	0xbf1d5ae3	-0.6146681
18	0x3f49dd96	0.7885374
19	0x3f1c5828	0.61072016
20	0xbede482a	-0.43414432
21	0x3f345c66	0.7045349
22	0x3f4754d6	0.77863824
23	0x3ec7ff3a	0.3906191
24	0x3f2b3113	0.66871756
25	0x3f09c8c8	0.5382199
26	0x3f315d33	0.69282836
27	0x3f166d2b	0.5876033
28	0x3f1b4ac1	0.6066094
29	0x3f55d2dc	0.8352487
30	0x3f43c7b9	0.7647663
31	0x3f3279ba	0.6971699
32	0xbe5fb51c	-0.21846431
33	0x3f25365d	0.64536077
34	0x3f3960d8	0.72413397
35	0x3f323fbe	0.6962851
36	0x3ed0ea77	0.40803882
37	0x3f4907f3	0.78527755
38	0x3f0274f7	0.50959724
39	0xbe637283	-0.22211652
40	0x3f161eba	0.58640635
41	0x3f113c64	0.56732774
42	0x3da18b54	0.07887903
43	0xbe374777	-0.17898355
44	0xbdfd94d0	-0.12381899
45	0xbc0c67c4	-0.0085696615
46	0xbea2ce98	-0.31798244
47	0xbc8dde14	-0.01731781
48	0xbe15d147	-0.14630614
49	0x3f3e081a	0.7423111
50	0xbe8313cc	-0.2560104
51	0x3f3c00a8	0.734385
52	0x3f51ec3d	0.82001096
53	0x3ed92dcd	0.42417756
54	0xbe6f798f	-0.23386215
55	0x3ea1c741	0.3159733
56	0xbe917e7c	-0.28416812
57	0x3f34413f	0.7041206
58	0x3f4046bb	0.75107926
59	0x3e71436e	0.23560879
60	0x3f3cc9fd	0.7374571
61	0x3ef36def	0.4754481
62	0x3f44ab04	0.7682345
63	0x3e9c840a	0.30569488

model.fc2.weight f4 [32, 64]
0	0xbd681c26	-0.05666747
1	0xbd121a5c	-0.03566967
2	0xbde4dc29	-0.11174805
3	0xbdcbde70	-0.09954536
4	0xbe56a596	-0.20961604
5	0xbda20ced	-0.07912622
6	0xbceeb78c	-0.029140256
7	0xbe5af3f9	-0.2138213
8	0xbddafdf9	-0.10692973
9	0xbe18b6e6	-0.1491352
10	0xbe3804c2	-0.17970565
11	0xbdfdb146	-0.12387328
12	0xbe30350d	-0.17207737
13	0xbd9264c8	-0.07148129
14	0xbe246957	-0.16055809
15	0xbe61207c	-0.21985048
16	0xbe08a72a	-0.13345018
17	0x3d9d0f5c	0.07668945
18	0xbda90acf	-0.08254015
19	0xbe50bc8c	-0.20384425
20	0x3cc472ec	0.02398058
21	0xbd94f808	-0.07273871
22	0xbd83c9ad	-0.06434951
23	0xbdac0d6b	-0.08400997
24	0xbe347d3f	-0.17625903
25	0xbc6ba990	-0.014383689
26	0xbe094586	-0.13405427
27	0xbd906cf2	-0.0705203
28	0xbdebd60e	-0.11515437
29	0xbd7e4772	-0.062079854
30	0xbe18dc8c	-0.14927882
31	0xbe3cfaac	-0.18454999
32	0xbe532f9c	-0.2062363
33	0xbc830b24	-0.015996523
34	0xbda9fc9b	-0.08300134
35	0xbcf23680	-0.029567003
36	0xbda869b4	-0.08223286
37	0xbe662a50	-0.22477078
38	0x3c802310	0.01564172
39	0xbc3bb400	-0.01145649
40	0xbe242ffc	-0.1603393
41	0xbd77bffc	-0.060485825
42	0xbde1d79c	-0.11027452
43	0xbc8a65a8	-0.016894177
44	0x3b5820a0	0.003297843
45	0xbd0b7518	-0.034047216
46	0xbcbe5c30	-0.023237318
47	0x3caa9c30	0.02082643
48	0xbddc699e	-0.107623324
49	0xbe0129f8	-0.12613666
50	0xbe38dead	-0.18053694
51	0xbdd7c857	-0.10536259
52	0xbcc750f8	-0.024330601
53	0xbe59bfbd	-0.21264549
54	0xbe0dd86f	-0.13852094
55	0xbddea478	-0.10871214
56	0xbd82aa58	-0.06380147
57	0xbe45c1c0	-0.19312191
58	0xbda33486	-0.079690024
59	0xbe208044	-0.1567393
60	0xbe62f188	-0.2216245
61	0xbe5d21b0	-0.21594882
62	0xbd469b3e	-0.048487894
63	0xbdc1b7ad	-0.094588615
64	0x3e17cf29	0.14825119
65	0x3e7b0a93	0.24515752
66	0x3dfa6c7f	0.12227725
67	0x3e4cc542	0.19997123
68	0xbfa81997	-1.3132809
69	0x3d77889b	0.06043301
70	0x3e555866	0.20834503
71	0x3e8d83df	0.27639672
72	0x3dde5355	0.10855738
73	0xbb8ed2e8	-0.004358638
74	0x3e86738f	0.2626004
75	0x3b1e6b08	0.0024172682
76	0x3d9cc29d	0.07654307
77	0x3e92307e	0.28552622
78	0xbe463f42	-0.19360068
79	0x3e33d24b	0.17560689
80	0xbe456a02	-0.1927872
81	0x3eb78adb	0.35848126
82	0x3d8482ca	0.064702585
83	0x3e8ef223	0.2791911
84	0x3c1ef258	0.009701334
85	0x3e11e50d	0.14247532
86	0x3e8d22f1	0.2756572
87	0x3b554390	0.003254149
88	0x3ecc665e	0.3992185
89	0x3e8ab8b6	0.27094048
90	0x3e6af626	0.2294546
91	0x3cf309dc	0.029667787
92	0x3dc7cad6	0.09755485
93	0x3edf432f	0.43605945
94	0x3eb07980	0.34467697
95	0x3e8c614b	0.2741798
96	0x3e0d13ec	0.13777131
97	0x3e03e932	0.12881926
98	0xbd72238f	-0.059115943
99	0x3da69e94	0.08135715
100	0x3e08ed5f	0.133718
101	0x3da30cf4	0.07961455
102	0x3df567b2	0.11982669
103	0x3e29c9ce	0.16580889
104	0x3df1159b	0.11771699
105	0x3e985e1f	0.2975931
106	0x3dda8d08	0.10671431
107	0x3d8ae6ac	0.067822784
108	0x3daf0e0f	0.08547603
109	0x3eb2b997	0.3490722
110	0x3e9389ea	0.28816158
111	0x3f0f1692	0.55893815
112	0x3db7f8b0	0.0898298
113	0x3e484abb	0.19559757
114	0x3e74139b	0.23835604
115	0x3e4cb322	0.19990209
116	0x3e2a8169	0.16650929
117	0x3e0ff916	0.14059862
118	0x3d8a690f	0.067583196
119	0x3e23c136	0.15991673
120	0x3d2993b3	0.041400623
121	0x3e304401	0.17213441
122	0x3eac1b9b	0.3361481
123	0xbdb15527	-0.0865882
124	0x3c7f7d0c	0.015593778
125	0x3e39abb0	0.181319
126	0x3ebe1d49	0.37131718
127	0x3e28028f	0.16407226
128	0xbc441668	-0.011968233
129	0xbdc2f1e6	-0.09518795
130	0xbe0c47d5	-0.13699277
131	0xbe32212a	-0.17395464
132	0xbdb31bd7	-0.087455444
133	0xbd988ab5	-0.07448331
134	0xbb898a40	-0.004197389
135	0xbde78f06	-0.113065764
136	0xbe0bef46	-0.13665494
137	0xbdd144ae	-0.10218178
138	0xbdd79441	-0.10526324
139	0xbe069208	-0.13141644
140	0x3bbc3100	0.005743146
141	0xbc20bf30	-0.009811208
142	0xbd382b06	-0.044962905
143	0xbe29c20e	-0.16577932
144	0xba5c9480	-0.0008414462
145	0xbcf90778	-0.03039907
146	0x3cbc1210	0.022957832
147	0xbdbebd67	-0.093134694
148	0xbdcf9c10	-0.101371884
149	0xbe0c1bf0	-0.13682532
150	0xbd78891a	-0.060677625
151	0xbd558ba6	-0.052135132
152	0xbe4da94c	-0.20084113
153	0xbd6c96c6	-0.057760976
154	0xbe51bf69	-0.20483173
155	0x3c442b38	0.011973195
156	0xbd49efa4	-0.049300805
157	0xbd961ffe	-0.07330321
158	0x3ca1797c	0.019711249
159	0xbb329e80	-0.0027255118
160	0xbdaeac6b	-0.0852898
161	0xbdd99702	-0.106245056
162	0xbe044672	-0.12917498
163	0xbdb0c296	-0.08630864
164	0xbe13f93a	-0.14450541
165	0xbe20ed1d	-0.15715452
166	0xbd462014	-0.048370436
167	0xbd355d8e	-0.044278674
168	0xbe3519c9	-0.17685618
169	0xbda45764	-0.08024481
170	0xbe342c1f	-0.17594956
171	0xbe481e19	-0.19542731
172	0xbe46c6e6	-0.19411811
173	0x3c4b7a00	0.012419224
174	0x3cbf4230	0.02334699
175	0xbd724cf4	-0.05915542
176	0xbe0b135a	-0.13581601
177	0xbc6c14a8	-0.014409222
178	0xbe084a5d	-0.13309617
179	0xbd889f65	-0.06671027
180	0xbd333148	-0.04374817
181	0xbe17655f	-0.14784764
182	0xbd48071c	-0.048834905
183	0xbe1e7908	-0.15475857
184	0xbe4ce63c	-0.20009702
185	0xbd8f1f0e	-0.06988345
186	0xbe5af366	-0.21381912
187	0xbe3bc2c1	-0.18336011
188	0xbad059c0	-0.0015895888
189	0xbe55082d	-0.208039
190	0xbca6ed90	-0.02037695
191	0xbd75a926	-0.059975766
192	0x3dc1e3dd	0.094672896
193	0x3e1b3dba	0.15160266
194	0xbdef2616	-0.11677186
195	0x3e804b78	0.25057578
196	0xc018cd1f	-2.3875196
197	0xbd8eca91	-0.0697223
198	0xbbc66f38	-0.006055739
199	0x3e5ed123	0.21759467
200	0xbdb7b416	-0.089698955
201	0x3eb00f10	0.34386492
202	0x3e994b97	0.29940483
203	0x3e5e2b0b	0.21696107
204	0x3e1fafaf	0.15594362
205	0x3ee5ebe2	0.44906527
206	0x3e5682b0	0.20948291
207	0x3edc2434	0.4299637
208	0x3d5efa1b	0.054437738
209	0x3db3171c	0.08744642
210	0x3e2f2393	0.17103414
211	0x3a3f3680	0.0007294193
212	0x3e92e02b	0.28686652
213	0x3c3c03f6	0.011475554
214	0x3e034672	0.12819842
215	0x3e07079e	0.131865
216	0x3d269db8	0.040677756
217	0x3e6e524d	0.23273583
218	0x3e1ed837	0.15512167
219	0x3e23e5e3	0.16005664
220	0x3e2f5092	0.17120579
221	0x3e381af4	0.17979032
222	0x3e60a9e7	0.21939813
223	0x3e70d4bb	0.2351865
224	0xbd02c2cb	-0.03192405
225	0x3d8b6b40	0.06807566
226	0x3e80f10e	0.2518391
227	0x3ea0bddd	0.31394854
228	0x3d8f6468	0.07001573
229	0x3dee447e	0.116341576
230	0x3d6b2202	0.05740548
231	0x3cf5b914	0.029995479
232	0x3e48f6ac	0.19625348
233	0x3e59349f	0.2121148
234	0x3e9a8bee	0.30184883
235	0x3c861322	0.016366545
236	0x3eb81813	0.35955867
237	0x3e8a3656	0.2699458
238	0x3daa44d0	0.08313906
239	0x3ecd00b5	0.40039602
240	0x3eb475cf	0.3524613
241	0xbe36910e	-0.17828771
242	0xbbb1a1a6	-0.0054208813
243	0x3e32bf81	0.17455865
244	0x3da7168e	0.08158599
245	0xbc90afb8	-0.017661914
246	0x3dd6dc93	0.1049129
247	0x3d8db717	0.06919687
248	0x3e77635f	0.24159001
249	0x3de4ce1b	0.11172124
250	0x3e4406d8	0.19143236
251	0x3e36ef1b	0.17864649
252	0x3ec6a43b	0.38797173
253	0x3e6bbfb7	0.23022352
254	0x3e970a48	0.2950003
255	0x3e00ae3b	0.12566464

model.fc2.bias f4 [32]
0	0xbc8ce84c	-0.017200612
1	0x409188f1	4.5479665
2	0xbdb2de2e	-0.08733784
3	0x409327df	4.598617
4	0xbe502210	-0.20325494
5	0xbe118108	-0.14209378
6	0xbe57624c	-0.21033591
7	0x408e3795	4.444285
8	0x40944f8d	4.634711
9	0xbc8753bc	-0.01651942
10	0xbe14d0f6	-0.14532837
11	0xbdd9f44e	-0.106423005
12	0x408fc680	4.492981
13	0x409098fe	4.518676
14	0xbb8c5d00	-0.0042835474
15	0x4090452c	4.508444
16	0xbdc37081	-0.09542943
17	0xbdb38a07	-0.08766561
18	0xbde8c9ea	-0.11366637
19	0x408ddf1c	4.433485
20	0x4090691f	4.512832
21	0xbe45682f	-0.19278024
22	0x4095757c	4.6705914
23	0x408e6c10	4.450691
24	0x40910535	4.5318856
25	0x408d8dbb	4.423551
26	0xbe4f050c	-0.20216769
27	0xbe0d99db	-0.13828222
28	0x40904d81	4.509461
29	0x3c7eedf0	0.015559658
30	0x408dd96b	4.4327903
31	0x4093af6a	4.615163

model.fc3.weight f4 [1, 32]
0	0x3c175f98	0.0092391
1	0x3f1a1864	0.6019347
2	0x3dca71cb	0.098849855
3	0x3f1801b6	0.5937761
4	0x3d108254	0.03528054
5	0x3c29cf28	0.010364331
6	0xba08c200	-0.00052168965
7	0x3f276298	0.6538482
8	0x3f209398	0.6272521
9	0xbbba3db0	-0.0056836233
10	0x3d73649e	0.059422128
11	0x3d3a3da2	0.045468934
12	0x3efac4fe	0.48978418
13	0x3f0beb9d	0.5465639
14	0xbc8bfb28	-0.017087534
15	0x3f201c68	0.62543344
16	0xbc87b078	-0.016563639
17	0x39dffa00	0.0004272014
18	0xbd102cbc	-0.035198912
19	0x3f13dc4b	0.57758015
20	0x3f19e702	0.60118115
21	0x39c40a00	0.00037391484
22	0x3f19f473	0.60138625
23	0x3f23c91c	0.63978744
24	0x3f11494d	0.56752473
25	0x3f1711ed	0.5901173
26	0xbc843f48	-0.016143456
27	0xbd27f6d6	-0.041006885
28	0x3f167f98	0.5878844
29	0xbd1134ce	-0.03545075
30	0x3f19608b	0.5991294
31	0x3f26632b	0.6499507

square_avg f4 [64, 4]
0	0x430d9087	141.56456
1	0x430fa446	143.6417
2	0x42d2d021	105.4065
3	0x4342667e	194.40036
4	0x4322750e	162.45724
5	0x430e48c2	142.28421
6	0x43a53f87	330.4963
7	0x435f6b64	223.4195
8	0x44395c9b	741.44696
9	0x4476b114	986.76685
10	0x4450757e	833.8358
11	0x445b33be	876.8085
12	0x43bfec3a	383.84552
13	0x43beadb1	381.35696
14	0x43f7a42c	495.2826
15	0x43e38d03	455.10165
16	0x45cbe8dd	6525.108
17	0x4601456f	8273.358
18	0x4613c46f	9457.108
19	0x45cbed28	6525.6445
20	0x430bed9f	139.9282
21	0x43404208	192.25793
22	0x43174235	151.25862
23	0x430bfc5e	139.98581
24	0x4442f768	779.8657
25	0x4470167f	960.3515
26	0x4476ab3e	986.67566
27	0x44518c21	838.1895
28	0x44075b1f	541.42377
29	0x440da473	566.5695
30	0x445f52a6	893.2914
31	0x440e601a	569.5016
32	0x42e5be4d	114.87168
33	0x42b0a2e2	88.31813
34	0x42c2b027	97.34405
35	0x42ab629c	85.6926
36	0x43a0c7fa	321.56232
37	0x43bdd5df	379.67087
38	0x4404e01b	531.50165
39	0x43f61860	492.19043
40	0x43bc8f66	377.1203
41	0x4425e8ec	663.6394
42	0x43d58967	427.07346
43	0x43d3b050	423.37744
44	0x433b8716	187.52768
45	0x4387d4b2	271.66168
46	0x4399f329	307.8997
47	0x436b7b6b	235.4821
48	0x43871485	270.1603
49	0x4382067f	260.05075
50	0x43b9ac1e	371.34467
51	0x43851756	266.1823
52	0x44411896	772.38416
53	0x446db3d7	950.81
54	0x44d115bc	1672.6792
55	0x4475ea76	983.66345
56	0x4324b7b4	164.71759
57	0x42f989aa	124.768875
58	0x4389665c	274.79968
59	0x43416aa4	193.41656
60	0x4299ca1c	76.894745
61	0x4286584d	67.17246
62	0x42896ec5	68.71635
63	0x429f4624	79.63699
64	0x434641cf	198.25706
65	0x43759f8c	245.62323
66	0x43a2a221	325.26663
67	0x43371938	183.09851
68	0x42a49cce	82.30626
69	0x42578109	53.87601
70	0x426557a0	57.33557
71	0x42d8f33e	108.47508
72	0x4428df1c	675.4861
73	0x446cf07d	947.7576
74	0x443e0045	760.0042
75	0x4414071b	592.111
76	0x4420ad59	642.70856
77	0x4487dcb7	1086.8973
78	0x448460da	1059.0266
79	0x44801922	1024.7854
80	0x43c7b57f	399.41794
81	0x43df06c4	446.05286
82	0x441370b6	589.7611
83	0x43f51def	490.23386
84	0x43ae3340	348.4004
85	0x4401fe6a	519.9752
86	0x43e53ac9	458.45926
87	0x43abaf0c	343.36755
88	0x43c30637	390.04855
89	0x440f60d5	573.513
90	0x43fdbd06	507.47675
91	0x440431dc	528.77905
92	0x440b75e2	557.8419
93	0x4467f8c0	927.8867
94	0x44384a40	737.16016
95	0x440ade34	555.4719
96	0x43abd42d	343.65762
97	0x43bd34a1	378.41116
98	0x43e187a5	451.05972
99	0x43e14175	450.51138
100	0x439a9474	309.1598
101	0x440a9f7c	554.49194
102	0x43e36f2b	454.8685
103	0x43c7abae	399.34125
104	0x43a456fc	328.67957
105	0x4411bc9b	582.94696
106	0x43ce94ab	413.16147
107	0x43b59e16	363.23505
108	0x4393aac7	295.3342
109	0x43cc4f7e	408.62103
110	0x43a6f996	333.9499
111	0x43a53a90	330.45752
112	0x435a10ff	218.06639
113	0x43b9f2f8	371.8982
114	0x43958f4a	299.11945
115	0x43873cfd	270.47647
116	0x43e3416e	454.51117
117	0x440a945e	554.31824
118	0x44209d7f	642.4609
119	0x44078d04	542.20337
120	0x442ab1e3	682.7795
121	0x448936c7	1097.7118
122	0x4453d77a	847.3668
123	0x443bcc0a	751.1881
124	0x43b50fca	362.12335
125	0x4452d778	843.3667
126	0x43ca3f51	404.49466
127	0x44024cd8	521.2007
128	0x42ada955	86.83073
129	0x42a9e877	84.95403
130	0x42958b59	74.77216
131	0x42a81d8d	84.05772
132	0x43fb3740	502.43164
133	0x443d6452	757.5675
134	0x4451e769	839.6158
135	0x4437f2aa	735.7916
136	0x43a9297d	338.32413
137	0x440ee076	571.5072
138	0x43d0dfe8	417.74927
139	0x43deb702	445.42975
140	0x4395ddc8	299.73267
141	0x43b92607	370.2971
142	0x43a4c00e	329.50043
143	0x43a78aff	335.0859
144	0x439a58e1	308.69437
145	0x4400082c	512.1277
146	0x43dea694	445.3014
147	0x43aa2eca	340.36554
148	0x44285956	673.3959
149	0x441c1993	624.3996
150	0x4452160b	840.3444
151	0x44096cf0	549.70215
152	0x4497cb24	1214.3481
153	0x4515d5da	2397.3657
154	0x44e91562	1864.6682
155	0x44a6fec7	1335.9618
156	0x4265c14a	57.43876
157	0x4287ad70	67.838745
158	0x4212f5d3	36.740063
159	0x423cfc98	47.246674
160	0x43462903	198.1602
161	0x436a9f6a	234.62271
162	0x43a2aa64	325.33118
163	0x435d654d	221.3957
164	0x43a422ad	328.2709
165	0x43b01424	352.15735
166	0x43f16384	482.77747
167	0x43a88a45	337.08023
168	0x43141849	148.09486
169	0x42f0fda7	120.495415
170	0x42ca097b	101.01852
171	0x42e5116a	114.53401
172	0x4223322d	40.799
173	0x42001266	32.017967
174	0x41e8b19d	29.086725
175	0x4226f174	41.735794
176	0x434fdef6	207.87094
177	0x432f70da	175.44083
178	0x4309f001	137.93752
179	0x432d8983	173.53716
180	0x43c50f74	394.12073
181	0x4405f01c	535.7517
182	0x4423e6e4	655.60767
183	0x43e3b78d	455.434
184	0x43610618	225.0238
185	0x4339fbd1	185.98366
186	0x43d82b24	432.33704
187	0x439dc72b	315.556
188	0x4403c9d1	527.1534
189	0x4446bfd6	794.99744
190	0x447a29fc	1000.656
191	0x44431633	780.34686
192	0x42c3eaa4	97.95828
193	0x429d303f	78.59423
194	0x426e354d	59.55205
195	0x426c93c5	59.144306
196	0x43cda1f0	411.26514
197	0x443e5b7e	761.42957
198	0x43fab4f8	501.41382
199	0x43da4142	436.50983
200	0x43d1b8b3	419.44296
201	0x43b7c60e	367.5473
202	0x444aec53	811.69257
203	0x44312a3d	708.66
204	0x43d68f0b	429.11752
205	0x4400c1a6	515.02576
206	0x440d126c	564.28784
207	0x43c2634a	388.7757
208	0x440f8518	574.0796
209	0x44885c38	1090.8818
210	0x444ba9ec	814.655
211	0x442e35f9	696.8433
212	0x43946bcc	296.84216
213	0x43d09a2e	417.20453
214	0x43b01aa6	352.2082
215	0x43961210	300.1411
216	0x441b1de8	620.4673
217	0x44076a1f	541.65814
218	0x444fb741	830.86334
219	0x4432c0fe	715.0155
220	0x43836502	262.78912
221	0x439a51c6	308.63885
222	0x43f254d0	484.6626
223	0x43bdc8ea	379.56964
224	0x4322ca9f	162.79149
225	0x4304f4fe	132.957
226	0x4382f797	261.9343
227	0x437c35ae	252.20969
228	0x43b8c57d	369.54288
229	0x44140080	592.0078
230	0x44244cee	657.202
231	0x43f36e42	486.8614
232	0x43d6d5ba	429.66974
233	0x43e80499	464.03592
234	0x441cf5de	627.8417
235	0x43f15f91	482.7466
236	0x431f0352	159.01297
237	0x43358760	181.52881
238	0x42e3e70d	113.95127
239	0x4333e19f	179.88133
240	0x4414b04a	594.7545
241	0x441325ac	588.5886
242	0x4478da8e	995.4149
243	0x441d41bd	629.02716
244	0x430ce8d8	140.90955
245	0x4364fa29	228.97719
246	0x431bf1b4	155.94415
247	0x4323a541	163.64552
248	0x44403902	768.89075
249	0x441565c3	597.59
250	0x4479ed0f	999.70404
251	0x4455bbdd	854.93536
252	0x43f81f29	496.24344
253	0x43f78742	495.0567
254	0x441a352e	616.83093
255	0x43cd6327	410.77463

square_avg f4 [64]
0	0x433e3b3c	190.23138
1	0x435ab17c	218.6933
2	0x4460c229	899.03375
3	0x44047909	529.8912
4	0x45c4b1a2	6294.204
5	0x4301de2f	129.8679
6	0x44826514	1043.1587
7	0x44379c66	734.4437
8	0x42d4cdf0	106.40222
9	0x43f1d9bb	483.70102
10	0x43bff4b0	383.91162
11	0x4372be9f	242.74461
12	0x43b8a4dc	369.28796
13	0x447d648c	1013.57104
14	0x433d4f95	189.31087
15	0x42acc85c	86.39133
16	0x4381c1e4	259.51477
17	0x42d42c42	106.08644
18	0x445cf140	883.76953
19	0x4451bbf3	838.9367
20	0x43eff8a1	479.9424
21	0x43cae6a0	405.80176
22	0x4403dade	527.4198
23	0x44146bc4	593.68384
24	0x4409d5b3	551.33905
25	0x43c34dc5	390.60757
26	0x43b65435	364.65787
27	0x43a7c245	335.51773
28	0x43a0c20f	321.51608
29	0x4414c784	595.11743
30	0x446477bd	913.8709
31	0x43b13e7d	354.4882
32	0x42abbd9e	85.870346
33	0x44462e11	792.7198
34	0x43d27f02	420.99225
35	0x43aefda6	349.98163
36	0x43a7e3ad	335.77872
37	0x441660a2	601.5099
38	0x44a36e9b	1307.4564
39	0x42410fe5	48.265522
40	0x4382a7f9	261.3123
41	0x43f83289	496.3948
42	0x42e992d9	116.78681
43	0x422a84d5	42.62972
44	0x43314777	177.27916
45	0x44113bc7	580.934
46	0x439cfaef	313.96042
47	0x4434f2a6	723.7914
48	0x4271adc4	60.419693
49	0x43f3cada	487.58478
50	0x442d0e87	692.227
51	0x44108ee8	578.2329
52	0x445344d0	845.0752
53	0x4392fa4b	293.9554
54	0x442fcb79	703.17926
55	0x43d1ec76	419.84735
56	0x4376e581	246.8965
57	0x4411907d	582.2576
58	0x441c990f	626.39154
59	0x4334e17e	180.88083
60	0x444dae87	822.727
61	0x43466861	198.40773
62	0x447f2e07	1020.7192
63	0x43f53cf4	490.4762

square_avg f4 [32, 64]
0	0x209feb28	2.709126e-19
1	0x2325f1ea	8.995895e-18
2	0x21d169ae	1.4190364e-18
3	0x21f26b43	1.642695e-18
4	0x1b6331fe	1.8793153e-22
5	0x20befc55	3.2354231e-19
6	0x23a0c3b6	1.7430122e-17
7	0x2204c7ca	1.7995103e-18
8	0x21391f7e	6.272212e-19
9	0x221dc46f	2.1381459e-18
10	0x216987b2	7.912306e-19
11	0x220c9c72	1.905636e-18
12	0x2370a73f	1.3045842e-17
13	0x23935f50	1.5978138e-17
14	0x22a1b5c5	4.3831593e-18
15	0x20636456	1.9260846e-19
16	0x2011506e	1.230859e-19
17	0x00000000	0.0
18	0x1c835357	8.690396e-22
19	0x218937ca	9.298248e-19
20	0x1eb007f4	1.8638014e-20
21	0x23312646	9.603294e-18
22	0x23927126	1.5877272e-17
23	0x1e4cc9b7	1.0841384e-20
24	0x2250fe5d	2.8323915e-18
25	0x21440f86	6.642793e-19
26	0x1e758c53	1.299921e-20
27	0x2318c923	8.282529e-18
28	0x211efe78	5.386927e-19
29	0x22927b40	3.9703875e-18
30	0x22cebba7	5.6035097e-18
31	0x23713c5f	1.307742e-17
32	0x1eb44cfd	1.9090083e-20
33	0x21e17bd3	1.5279369e-18
34	0x2336e2da	9.9142775e-18
35	0x2363678d	1.2327622e-17
36	0x21da56a1	1.4795185e-18
37	0x2162a1d8	7.6785977e-19
38	0x2129ec0f	5.757185e-19
39	0x2083b780	2.2313693e-19
40	0x229e9c78	4.2991654e-18
41	0x20e40fec	3.8635239e-19
42	0x1d4082a5	2.547853e-21
43	0x220db195	1.9203074e-18
44	0x23c07cf4	2.0869601e-17
45	0x2244741c	2.662442e-18
46	0x22245bdd	2.2274777e-18
47	0x21ce7978	1.3991255e-18
48	0x00000000	0.0
49	0x231baf02	8.439626e-18
50	0x1ea65c25	1.7614044e-20
51	0x1fd6cbe4	9.0969834e-20
52	0x22ad54c5	4.6981497e-18
53	0x23db3d4a	2.3769985e-17
54	0x208b9c00	2.3650748e-19
55	0x228f68c2	3.8871144e-18
56	0x1f0b5c7e	2.9510903e-20
57	0x21e0cef4	1.523361e-18
58	0x225b8b8b	2.9753908e-18
59	0x21019785	4.3907435e-19
60	0x229522af	4.0423254e-18
61	0x21af9947	1.1899033e-18
62	0x23f3461b	2.6375804e-17
63	0x2221b532	2.1915493e-18
64	0x418adf3b	17.359
65	0x41e0d73d	28.105097
66	0x42bc936a	94.28792
67	0x42870d9b	67.52657
68	0x4072790f	3.7886388
69	0x41ae8bd0	21.818268
70	0x42d5814e	106.75255
71	0x428e9045	71.28178
72	0x418d50a3	17.664373
73	0x4255dcb2	53.465523
74	0x4227b775	41.929157
75	0x4263f9fa	56.994118
76	0x429c573d	78.17039
77	0x424424f4	49.036087
78	0x41a5e27d	20.73559
79	0x41a82a2b	21.02059
80	0x42326f41	44.608646
81	0x415a6d91	13.65175
82	0x42b56559	90.697945
83	0x42d7cc19	107.89863
84	0x420b91e0	34.892456
85	0x42913141	72.5962
86	0x42c2671e	97.2014
87	0x428aeee6	69.4666
88	0x4290606e	72.18834
89	0x42a87e24	84.24637
90	0x42944ea2	74.15358
91	0x42516dc6	52.3572
92	0x422fc97b	43.94676
93	0x42ec4b62	118.14723
94	0x42bca026	94.31279
95	0x425d7cf3	55.37202
96	0x4178950c	15.536388
97	0x42819f70	64.8114
98	0x4293525c	73.66086
99	0x42b59cec	90.80649
100	0x425366a4	52.850235
101	0x42b3daae	89.92711
102	0x42e1307d	112.5947
103	0x40e07162	7.0138407
104	0x427f5042	63.828377
105	0x42832a1b	65.58224
106	0x413a26ff	11.634521
107	0x4135803f	11.34381
108	0x4195aef3	18.710424
109	0x428750ab	67.657555
110	0x41c7faf5	24.997538
111	0x427f2332	63.78437
112	0x4110c15b	9.047206
113	0x42b57090	90.71985
114	0x420f5939	35.83713
115	0x42ab5eee	85.68541
116	0x42f82786	124.077194
117	0x428720af	67.563835
118	0x4274daf4	61.21382
119	0x42614dae	56.32586
120	0x41f2f181	30.367922
121	0x42950fda	74.53096
122	0x425e76cb	55.61601
123	0x41bbfb5d	23.497736
124	0x42f3fbb2	121.99159
125	0x41d2b11d	26.336481
126	0x42be7bec	95.242035
127	0x429cd3f2	78.413956
128	0x1ba15c49	2.6694854e-22
129	0x1ea7fbbd	1.778593e-20
130	0x1e177a8c	8.0192155e-21
131	0x1e1c768b	8.283085e-21
132	0x1c4cf0f9	6.780939e-22
133	0x1c08f47b	4.531461e-22
134	0x1ee31acc	2.4045643e-20
135	0x1c2d9c38	5.7442806e-22
136	0x1dd70245	5.6912373e-21
137	0x1e38d54b	9.784987e-21
138	0x1cd69aea	1.4201376e-21
139	0x1eb4f2db	1.9158684e-20
140	0x1e47517b	1.0551822e-20
141	0x1eee1be8	2.5210772e-20
142	0x1ddc015b	5.8234917e-21
143	0x1d78a573	3.2908062e-21
144	0x1d853791	3.526226e-21
145	0x1c8fb2b3	9.509139e-22
146	0x1e7c285e	1.3349117e-20
147	0x1e4837f2	1.0599481e-20
148	0x19da6392	2.2580888e-23
149	0x1e4ea1f7	1.0939043e-20
150	0x1eefba8e	2.5382267e-20
151	0x1e0d0c74	7.467053e-21
152	0x1e6d4d19	1.2562619e-20
153	0x1c9ea4b3	1.0498137e-21
154	0x1c33a31f	5.943696e-22
155	0x1ef1e498	2.5611412e-20
156	0x1e01ccf3	6.871586e-21
157	0x1e12fc63	7.781368e-21
158	0x1f03e89a	2.7932733e-20
159	0x1eca2890	2.1404358e-20
160	0x1c0fd0c1	4.758454e-22
161	0x1d46042d	2.620724e-21
162	0x1f049530	2.8075492e-20
163	0x1f16af80	3.1908906e-20
164	0x1dfe439c	6.7303147e-21
165	0x1d1844de	2.0152636e-21
166	0x1c534f11	6.9916235e-22
167	0x1cad148c	1.1453491e-21
168	0x1e7e7f82	1.3473016e-20
169	0x1d37453e	2.4255646e-21
170	0x1cc3edf2	1.2965525e-21
171	0x1c7eb666	8.4277295e-22
172	0x1d980b1b	4.0245548e-21
173	0x1d5cbb2a	2.921352e-21
174	0x1e0129fc	6.837885e-21
175	0x1e00c2fa	6.816584e-21
176	0x1c021b9d	4.304908e-22
177	0x1f75262c	5.1912343e-20
178	0x1b491c48	1.6635468e-22
179	0x1e0831e7	7.2101e-21
180	0x1ec59b7d	2.0922495e-20
181	0x1f0bacee	2.957744e-20
182	0x1c919ec8	9.636339e-22
183	0x1d9bf92f	4.128581e-21
184	0x1b6314e6	1.8783753e-22
185	0x1e2098a3	8.501894e-21
186	0x1e962c99	1.5900313e-20
187	0x1d8f3315	3.7904602e-21
188	0x1efd72f0	2.6834954e-20
189	0x1e1e0bd6	8.366898e-21
190	0x1ed7a2a6	2.283128e-20
191	0x1bc08995	3.1852646e-22
192	0x419fab57	19.958662
193	0x421ad132	38.704292
194	0x42ec0a20	118.019775
195	0x42b2d0b8	89.40765
196	0x409b586e	4.8545446
197	0x41e5f5e1	28.745058
198	0x42f5d09f	122.90746
199	0x42b149f3	88.64443
200	0x4198be3f	19.092894
201	0x425c8881	55.133305
202	0x424433fc	49.050766
203	0x428c55e4	70.167755
204	0x42b1da4c	88.92636
205	0x4270d1ea	60.204994
206	0x41b6d9cd	22.856348
207	0x41c1133c	24.134392
208	0x424564b6	49.34835
209	0x416cd5aa	14.802164
210	0x42ef03e4	119.5076
211	0x42d49ef0	106.310425
212	0x4218a21a	38.158302
213	0x429ef042	79.46925
214	0x42e96973	116.705956
215	0x42a36c94	81.71207
216	0x42b16523	88.69753
217	0x42cf1b23	103.553
218	0x42bc474d	94.13926
219	0x426eca45	59.69753
220	0x425ff49f	55.988888
221	0x431cff96	156.99838
222	0x42e67b01	115.24024
223	0x4283ac43	65.83645
224	0x41a4f4d5	20.619547
225	0x429d5c93	78.68081
226	0x42ba111b	93.03341
227	0x42c04b50	96.147095
228	0x427c1793	63.02302
229	0x42ee8ec2	119.278824
230	0x43242379	164.13857
231	0x4101c449	8.110421
232	0x429d4ee8	78.65411
233	0x4296a0a5	75.31376
234	0x4166f5e4	14.435032
235	0x416551c0	14.3324585
236	0x41ad7034	21.679787
237	0x42bd1d03	94.55666
238	0x41e67c38	28.810654
239	0x42b32cfe	89.587875
240	0x41290840	10.564514
241	0x42eca4f1	118.32215
242	0x423856b8	46.084686
243	0x42cfd18b	103.90926
244	0x43084aae	136.29172
245	0x42a05e14	80.18375
246	0x42a89038	84.28168
247	0x428ab80c	69.35947
248	0x4206401e	33.562614
249	0x42bc8739	94.26411
250	0x429442fb	74.13082
251	0x41d3c42b	26.470785
252	0x4314f5f6	148.96078
253	0x41ff8e59	31.944506
254	0x42d29627	105.29327
255	0x42c22156	97.06511

square_avg f4 [32]
0	0x2422d657	3.5309703e-17
1	0x428c74a0	70.22778
2	0x1fe09079	9.51067e-20
3	0x42b3a343	89.81887
4	0x234f0dc6	1.1224409e-17
5	0x2523445f	1.4161161e-16
6	0x2612caff	5.0929037e-16
7	0x42ba1f69	93.06135
8	0x42bd0d26	94.52568
9	0x25a5ed6f	2.8783829e-16
10	0x24af3d6f	7.5998225e-17
11	0x259f4738	2.7630363e-16
12	0x4285dd3c	66.9321
13	0x42a28cdd	81.27512
14	0x269fe354	1.1094459e-15
15	0x42c39c72	97.80556
16	0x2640cad8	6.6888286e-16
17	0x25df7fe2	3.877099e-16
18	0x26549fd2	7.376887e-16
19	0x42afa788	87.82721
20	0x42ae2be4	87.085724
21	0x2670eb08	8.3585254e-16
22	0x4280e398	64.44452
23	0x42b87a36	92.23869
24	0x429147d9	72.64033
25	0x4299c001	76.87501
26	0x26237539	5.671085e-16
27	0x2627a74e	5.8166504e-16
28	0x42a82971	84.08094
29	0x26383392	6.3907715e-16
30	0x42c48f07	98.27935
31	0x42c25b97	97.17889

square_avg f4 [1, 32]
0	0x248a3e9d	5.995403e-17
1	0x46d99af9	27853.486
2	0x28441ffb	1.088712e-14
3	0x47055bdf	34139.87
4	0x2347a061	1.0821773e-17
5	0x26717b9d	8.37812e-16
6	0x27364f97	2.530072e-15
7	0x46ed6e31	30391.096
8	0x46f224be	30994.371
9	0x26a8848c	1.1693269e-15
10	0x273e3aa1	2.639958e-15
11	0x27a83576	4.668733e-15
12	0x46bee73b	24435.615
13	0x471d1fc7	40223.777
14	0x27b9cb73	5.1568395e-15
15	0x46fbc914	32228.54
16	0x26ff40ce	1.7711745e-15
17	0x27109864	2.0066626e-15
18	0x26b0efeb	1.2277483e-15
19	0x46c7e040	25584.125
20	0x46cafae0	25981.438
21	0x2898bf36	1.6958314e-14
22	0x46d28037	26944.107
23	0x46d60493	27394.287
24	0x47032521	33573.13
25	0x46bb4148	23968.64
26	0x27a0f9a7	4.4679595e-15
27	0x2719ea40	2.1360003e-15
28	0x4713b262	37810.383
29	0x26b30cfa	1.2424137e-15
30	0x47022568	33317.406
31	0x47025911	33369.066
