logs/wage_model/version_1/checkpoints/epoch=99-step=3600.ckpt (torch, 27562 bytes, 10 tensors)

model.fc1.weight f4 [64, 4]
0	0x3d2e61ec	0.042573854
1	0x3dc132d3	0.09433522
2	0x3e16cb7a	0.14726058
3	0x3e58479f	0.21121071
4	0x3e0724fe	0.13197705
5	0x3e680019	0.22656287
6	0x3e21a37f	0.15785025
7	0x3d700c89	0.058605704
8	0x3c288ddc	0.010287728
9	0x3dd47d41	0.10375453
10	0x3e4389b0	0.19095492
11	0x3df09957	0.11747997
12	0x3c439c46	0.011939114
13	0x3e5c8d5a	0.21538296
14	0x3e7ba9a9	0.24576439
15	0x3da2b483	0.07944586
16	0x3da6480a	0.08119209
17	0x3ca2a871	0.01985571
18	0x3e945e0a	0.28977996
19	0x3f046ffb	0.5173337
20	0xbd529896	-0.05141505
21	0x3cf14215	0.029450456
22	0xbeb11aba	-0.34590703
23	0xbe5fb859	-0.21847667
24	0x3d27bce8	0.04095164
25	0x3e25d9e6	0.16196403
26	0x3e92b9ee	0.28657478
27	0xbbe4b4cc	-0.0069795605
28	0xbd19a909	-0.03751472
29	0x3dcbfda2	0.09960486
30	0x3eebc3e5	0.46047893
31	0x3e0e7dca	0.13915172
32	0x3e32e701	0.17470933
33	0xbd4c7364	-0.049914733
34	0x3f6cdc1e	0.9252337
35	0xbccdeaac	-0.025136314
36	0xbe2b4fea	-0.16729704
37	0xbdb5dfbf	-0.08880567
38	0x3d407d72	0.046994634
39	0xbf2034d5	-0.62580615
40	0xbde7d501	-0.11319924
41	0x3e80669a	0.2507828
42	0x3e1f6d0c	0.15568942
43	0x3d5413be	0.05177664
44	0xbe8f92b7	-0.28041622
45	0xbd56836a	-0.05237142
46	0x3f2b0a87	0.6681294
47	0xbe50ed7c	-0.20403093
48	0x3d7537f1	0.059867803
49	0x3e186e38	0.14885795
50	0x3e16093c	0.1465196
51	0x3cbe1bb5	0.023206571
52	0x3ea7ce6b	0.32774672
53	0xbbd568e7	-0.0065127495
54	0x3ebf6955	0.3738505
55	0x3f4cc700	0.7999115
56	0x3d169aa1	0.03676856
57	0x3e3824ce	0.1798279
58	0x3e6f3bfd	0.23362727
59	0x3f63d780	0.890007
60	0xbe6ee254	-0.23328525
61	0x3d805af3	0.06267347
62	0x3ef61ccb	0.48068842
63	0x3d8e4cb4	0.06948224
64	0x3e91b82a	0.2846082
65	0x3df76485	0.120797195
66	0x3e7224e8	0.23646891
67	0x3e6eaf2a	0.23309007
68	0xbd45ebef	-0.048320707
69	0x3e3d6c36	0.1849831
70	0xbb657188	-0.0035010297
71	0xbf2d4bb6	-0.6769365
72	0x3e877606	0.26457232
73	0x3e02371e	0.12716338
74	0x3e884b29	0.26619843
75	0x3f668d1b	0.9005906
76	0x3de16dbe	0.1100726
77	0x3db5ed12	0.08883108
78	0x3cd7da0e	0.026349094
79	0xbe249bf4	-0.16075116
80	0xbe08194a	-0.13290897
81	0x3e134ff5	0.1438597
82	0x3e46ca7c	0.19413179
83	0xbd895bc3	-0.06706955
84	0xbe4f7bf2	-0.20262125
85	0xbe41bef4	-0.18920499
86	0xbf21b0e1	-0.6316052
87	0x3f551cf9	0.83247334
88	0x3e54beb6	0.20775875
89	0x3e1ac56f	0.15114377
90	0x3e9ee2fd	0.31032553
91	0xbe0a6c6b	-0.1351792
92	0x3ca7334b	0.0204102
93	0xbdd3a344	-0.10333875
94	0xbcd64459	-0.026155638
95	0xbf34adab	-0.70577496
96	0xbc4a2492	-0.012337821
97	0x3da36cae	0.079797134
98	0x3e6313d0	0.22175527
99	0xbf57defb	-0.84324616
100	0x3d0e644d	0.034763623
101	0x3dcc382f	0.09971654
102	0x3db01184	0.08597091
103	0x3de7e568	0.11323053
104	0x3d272a02	0.040811546
105	0x3e1239e1	0.14279892
106	0x3f34f1de	0.7068156
107	0xbebdb6bf	-0.37053487
108	0xbe14aa52	-0.14518097
109	0x3e0cc268	0.13746035
110	0xbbfd3f40	-0.0077284873
111	0xbf4d5c89	-0.8021932
112	0x3e4b5611	0.1985705
113	0x3dd3f826	0.10350065
114	0x3e965d08	0.29367852
115	0x3f3dd789	0.74157006
116	0xbcd7d8cc	-0.026348494
117	0x3c16352b	0.00916795
118	0x3e99b2cc	0.30019224
119	0x3f304849	0.688603
120	0xbda58777	-0.080824785
121	0x3dd2e47b	0.102974854
122	0xbe003a0f	-0.12522148
123	0xbf0512bd	-0.5198172
124	0x3d9e1c29	0.07720215
125	0x3d2316f6	0.03981682
126	0x3ea831e7	0.32850572
127	0x3f1913f6	0.5979608
128	0x3e2f61a4	0.1712709
129	0x3d90bdde	0.07067464
130	0x3e3b63ae	0.18299744
131	0x3e58cb94	0.21171409
132	0xbcc3e323	-0.023912018
133	0x3d0cf9be	0.03441786
134	0x3ebb2df6	0.36558503
135	0xbc86f789	-0.016475456
136	0x3e05dc46	0.13072309
137	0x3de13a8f	0.10997497
138	0x3d8ef0ae	0.069795
139	0xbdfaa5c7	-0.12238651
140	0xba0907c0	-0.000522729
141	0x3e3343eb	0.17506377
142	0x3e9c0f4b	0.30480418
143	0x3db9d638	0.09074062
144	0x3d950a0c	0.07277307
145	0x3b25ae6c	0.0025280965
146	0x3f37f5ed	0.7185963
147	0x3e66257b	0.22475235
148	0xbc608ad1	-0.013704971
149	0x3ddb6d00	0.107141495
150	0x3e2995b4	0.16561013
151	0xbf1ffd1d	-0.62495595
152	0x3e0ae5e5	0.1356426
153	0x3dbb0572	0.09131898
154	0x3ea3b30d	0.31972542
155	0x3daed9b8	0.0853762
156	0x3e4a84fc	0.19777292
157	0xbcf4b41e	-0.029871043
158	0x3d8ec797	0.069716625
159	0x3c19edc6	0.0093950685
160	0xbd918904	-0.07106212
161	0x3e1f6bd4	0.15568477
162	0xbd8ad31a	-0.06778546
163	0x3e1f2688	0.15542042
164	0x3da6dc5b	0.08147498
165	0x3d3c52da	0.04597745
166	0x3eb92020	0.36157322
167	0x3e133a0c	0.14377612
168	0xbd3c47ba	-0.04596684
169	0x3d3c9c84	0.046047702
170	0xbcc85be4	-0.02445788
171	0xbd894a57	-0.06703632
172	0xbe4eb26d	-0.20185252
173	0x3d0fbade	0.03509032
174	0xbdf67400	-0.12033844
175	0xbf32ba51	-0.69815546
176	0x3e0d59dd	0.13803811
177	0x3d4b72a4	0.049669877
178	0x3e2b572a	0.16732469
179	0xbde848bd	-0.11341999
180	0x3eacebdf	0.33773705
181	0x3dadb906	0.08482556
182	0x3f2b5453	0.66925544
183	0xbef3bd6a	-0.4760545
184	0x3db3ec16	0.08785264
185	0x3d465754	0.048423126
186	0x3e623165	0.22089155
187	0x3f2d25d5	0.6763585
188	0xba4b4d00	-0.00077553093
189	0x3ddaaf3d	0.10677955
190	0x3e9b375b	0.3031567
191	0x3f3eb51e	0.7449511
192	0xba6dae00	-0.00090667605
193	0x3e0a8461	0.13527061
194	0x3eb22630	0.3479476
195	0x3f6219a6	0.88320386
196	0x3e1d37cf	0.1535332
197	0x3d006e96	0.031355463
198	0x3d2e8a6e	0.042612486
199	0xbf1dd630	-0.6165495
200	0x3e793ff4	0.24340802
201	0x3d66cdc8	0.056348592
202	0x3ed80487	0.42190954
203	0x3f65029f	0.89457124
204	0x3e88c5cb	0.26713404
205	0x3d23c5a7	0.039983418
206	0x3e966f84	0.29381955
207	0x3e1d0509	0.15333952
208	0x3d977bc2	0.07396652
209	0x3dd52852	0.10408081
210	0x3e850c2a	0.25985843
211	0x3f59e7f2	0.85119545
212	0x3cb41a99	0.021985339
213	0xbe204900	-0.15652847
214	0x3e51a1a1	0.20471813
215	0x3d880bee	0.066429004
216	0x3e745fda	0.2386469
217	0x3e1b87a1	0.15188457
218	0x3f220899	0.6329437
219	0xbe859cc9	-0.2609618
220	0x3d49dab8	0.049280852
221	0x3dc0a510	0.09406483
222	0x3ea09284	0.31361783
223	0xbd4ff7c8	-0.050773412
224	0x3e2244c8	0.1584655
225	0x3d0371e2	0.03209103
226	0x3de6c972	0.112688914
227	0x3cd91d0e	0.026503112
228	0x3e60e34d	0.21961708
229	0x3e2e4df2	0.17021921
230	0x3e33b4f4	0.17549497
231	0x3e086fc7	0.1332389
232	0x3d84bad1	0.06480945
233	0xbbf77360	-0.0075515956
234	0x3e64cb23	0.22343116
235	0x3dbe9c8e	0.09307204
236	0xbd5c97fc	-0.05385588
237	0xbd3529ad	-0.0442292
238	0x3e6d9487	0.2320119
239	0xbdc1b3c2	-0.09458114
240	0x3d816612	0.063182965
241	0x3e1981b9	0.14990892
242	0xbdf3ca73	-0.119038485
243	0xbf4199c1	-0.75625235
244	0x3d4d8e73	0.05018468
245	0x3dcc0060	0.09961009
246	0x3ede37b9	0.43401888
247	0xbebdc3a6	-0.3706333
248	0xbca0dee8	-0.01963754
249	0x3ca056e5	0.019572685
250	0xbed7a029	-0.4211438
251	0xbe028f44	-0.12749964
252	0xbdc31652	-0.09525742
253	0x3dd7e9c0	0.10542631
254	0x3e2db634	0.16964036
255	0x3cfc5e36	0.030806642

model.fc1.bias f4 [64]
0	0x3f2d1560	0.6761074
1	0x3f329d3d	0.69771177
2	0x3f294d5e	0.6613368
3	0x3f3d84c4	0.7403071
4	0xbe8ae9ec	-0.27131593
5	0x3eedcb1b	0.4644402
6	0x3f481352	0.7815448
7	0x3f420dce	0.75802314
8	0xbf079b57	-0.52971405
9	0xbde50218	-0.1118204
10	0x3f3ad54b	0.7298171
11	0x3e9857df	0.2975454
12	0x3f43c491	0.7647181
13	0xbddd45d1	-0.10804332
14	0xbecf8308	-0.40529656
15	0x3f0dfea4	0.55466676
16	0x3f42f6e9	0.76158005
17	0xbcb37e85	-0.021910915
18	0xbe79d32c	-0.24396962
19	0x3f36a52e	0.71345794
20	0x3f2715d3	0.65267676
21	0xbf6d256d	-0.9263523
22	0x3f207be8	0.62689066
23	0xbc040bac	-0.008059423
24	0xbe36ef05	-0.17864616
25	0x3f0ea04e	0.55713356
26	0x3f264980	0.649559
27	0xbce1639e	-0.027513321
28	0xbe2f5c2d	-0.17125006
29	0xbdf79b6d	-0.12090192
30	0xbe08f633	-0.13375168
31	0x3e1eab16	0.15494952
32	0x3f3376e4	0.7010329
33	0x3f48bf4f	0.78416914
34	0x3f21e28b	0.632363
35	0x3f3c4ca3	0.7355444
36	0xbf4d5e2d	-0.80221826
37	0xbd5ab6f7	-0.053397145
38	0x3f42faf4	0.76164174
39	0x3f099be1	0.5375348
40	0x3f25b44f	0.64728254
41	0x3f2b37fe	0.6688231
42	0xbeb5985a	-0.35467798
43	0xbda665d9	-0.08124895
44	0x3f3b4e70	0.7316656
45	0x3ec829aa	0.39094287
46	0xbe16cb80	-0.14726067
47	0xbdf3116c	-0.11868557
48	0xbde173e6	-0.11008434
49	0xbe3f3570	-0.18672729
50	0xbeb1f62b	-0.34758124
51	0x3f28af16	0.6589216
52	0xbe7c3be6	-0.24632224
53	0x3f28d640	0.6595192
54	0x3ea394a2	0.31949335
55	0x3f353310	0.7078104
56	0x3f2a9885	0.66638976
57	0x3f55af6e	0.8347081
58	0x3f3773bd	0.7166098
59	0x3f078280	0.529335
60	0xbe1e20d0	-0.15442204
61	0x3e7e9a76	0.2486361
62	0x3ef90d94	0.48643172
63	0x3f2a4eda	0.6652657

model.fc2.weight f4 [32, 64]
0	0x3e44f55a	0.19234219
1	0x3de8101a	0.11331196
2	0x3d6bbae0	0.057551265
3	0x3e83b416	0.25723332
4	0x3da5d148	0.08096558
5	0x3ed88026	0.4228527
6	0x3ea3411a	0.31885606
7	0x3d807252	0.06271805
8	0xbeb958d4	-0.36200583
9	0xbe840b02	-0.25789648
10	0x3e0450fa	0.12921515
11	0x3e9550f3	0.29163322
12	0xbd98f0c2	-0.07467796
13	0x3e385c9f	0.18004082
14	0xbebdd67b	-0.37077698
15	0xbba47d60	-0.0050198287
16	0xbdf66b6a	-0.12032206
17	0xbdcfbf62	-0.10143925
18	0x3e3cc9e5	0.18436392
19	0x3e871a27	0.2638714
20	0xbd9dd586	-0.07706742
21	0x3ec15a42	0.37764174
22	0x3d0aca7e	0.033884518
23	0xbd789e2e	-0.060697727
24	0x3e765a42	0.24057868
25	0x3d6808b0	0.05664891
26	0x3e4658e4	0.19369847
27	0xbc1f060a	-0.00970603
28	0x3e7e60a6	0.24841556
29	0xbb3b0fc0	-0.0028543323
30	0x3d660dd0	0.056165516
31	0x3bd231c5	0.0064146244
32	0x3e213b6a	0.15745321
33	0x3e7faf6a	0.24969259
34	0x3e17ecd6	0.1483644
35	0xbdc3269e	-0.0952885
36	0x3e96f866	0.29486388
37	0x3ecbfb45	0.3984014
38	0x3d295d25	0.041348595
39	0x3da1af08	0.07894713
40	0x3e855bcd	0.260466
41	0x3e4a9422	0.1978307
42	0x3e5cd11c	0.21564144
43	0xbd3ecce2	-0.04658211
44	0x3d9353d2	0.07193722
45	0xbe308753	-0.17239122
46	0xbd285130	-0.04109305
47	0x3da3cdd4	0.07998243
48	0x3ebbac75	0.36655012
49	0x3e36143d	0.17781158
50	0x3d97c3de	0.074104056
51	0xbd853020	-0.0650332
52	0x3dbb5711	0.09147466
53	0xbe95d5ff	-0.2926483
54	0xbd89902d	-0.067169525
55	0xbd42edab	-0.04758994
56	0xbd11c737	-0.035590377
57	0xbace5b68	-0.0015743794
58	0x3dcad71e	0.099043116
59	0x3d05409a	0.032532312
60	0x3de536bc	0.111920804
61	0xbd914d2a	-0.07094796
62	0x3e8cf9b6	0.27534264
63	0xbcc81f2d	-0.024428928
64	0x3dc23578	0.094828546
65	0x3e38fb1e	0.18064544
66	0x3db0fa6c	0.08641514
67	0x3e1b746f	0.15181135
68	0x3e275c5c	0.16343826
69	0x3e2ca1b4	0.1685856
70	0x3606c000	2.0079315e-06
71	0x3e0ecc01	0.13945009
72	0x3e53808b	0.20654504
73	0xbac483d4	-0.0014992901
74	0x3d34eb74	0.044169858
75	0x3eb6b024	0.3568126
76	0xbc8436eb	-0.016139468
77	0x3eafad5b	0.34311947
78	0x3ea02cbc	0.3128413
79	0x3e8681ca	0.26270896
80	0x3d19e754	0.037574127
81	0xbddd875d	-0.10816834
82	0x3c9849ca	0.018589873
83	0x3de75d76	0.11297123
84	0x3bd7b8d8	0.0065833144
85	0x3e8a8229	0.2705243
86	0x3e9443a7	0.28957865
87	0x3d98d48f	0.07462417
88	0xbc454986	-0.012041455
89	0x3ecc8950	0.3994851
90	0x3e6b5288	0.22980702
91	0x3e0158f5	0.1263159
92	0x3e5ccaea	0.2156178
93	0x3e2e476a	0.1701943
94	0xbea3af61	-0.3196974
95	0x3e23cec7	0.15996848
96	0x3e4bb0d8	0.1989168
97	0x3eb3d6e3	0.35124883
98	0x3da66abe	0.08125828
99	0x3eadb095	0.33923784
100	0x3ea51a36	0.3224656
101	0x3ddb88c9	0.10719449
102	0x3ec10dba	0.37705785
103	0xbe2b470e	-0.16726324
104	0x3d4f026a	0.05053941
105	0x3e1c6f46	0.15276822
106	0x3c4fed50	0.012690857
107	0xbd3afad6	-0.045649372
108	0x3c5316db	0.012883867
109	0x3e713a45	0.23557384
110	0x3ed6e851	0.41974118
111	0xbd2d09ad	-0.042245556
112	0x3ef79ca8	0.48361707
113	0x3c6399ae	0.013891621
114	0x3eca719b	0.395398
115	0x3e819195	0.25306383
116	0xbd822f13	-0.06356635
117	0x3e3e2a32	0.18570784
118	0xbd15d832	-0.036583133
119	0xbd106e46	-0.035261415
120	0x3e413eab	0.18871562
121	0x3ec1cde2	0.3785239
122	0x3ee229e4	0.44172585
123	0x3e71470b	0.23562257
124	0x3eb32797	0.34991142
125	0x3e8f019d	0.27930918
126	0x3cdb6bca	0.026784796
127	0xbc10363a	-0.008801991
128	0x3e781ce1	0.24229766
129	0x3ed853b7	0.4225137
130	0x3d8359de	0.06413625
131	0x3e917069	0.28406075
132	0x3e4600dd	0.19336267
133	0x3da5c73b	0.08094641
134	0x3e85d2f2	0.261375
135	0x3da60a2e	0.0810741
136	0x3e8d83a9	0.2763951
137	0xbe4d5bd7	-0.20054565
138	0x3f2bc0b3	0.6709091
139	0x3ea17396	0.31533498
140	0x3e1f946b	0.1558396
141	0x3f1277bc	0.5721395
142	0x3e355168	0.17706835
143	0x3e38c69f	0.18044518
144	0x3de17de8	0.11010343
145	0x3e28157c	0.16414446
146	0x3e76167e	0.24032018
147	0xbc907e3e	-0.017638322
148	0x3e1fd1e1	0.15607406
149	0x3f02afb4	0.5104935
150	0x3ebea900	0.37238312
151	0x3e765992	0.24057606
152	0x3df372e9	0.11887152
153	0xbd30a8d2	-0.04312975
154	0x3e70210a	0.23450103
155	0xbc3dbdf4	-0.011580933
156	0x3ea4f915	0.32221285
157	0x3f113cdd	0.56733495
158	0x3c3943d1	0.011307673
159	0x3e6b6717	0.22988544
160	0x3d8898e5	0.06669787
161	0x3dc88ad4	0.09792104
162	0x3eca7950	0.3954568
163	0x3ecebaa5	0.40376773
164	0x3dac5f46	0.084166095
165	0x3e9e54de	0.30924124
166	0x3cf03b4c	0.02932515
167	0x3dca69a8	0.098834336
168	0x3dd21404	0.10257724
169	0x3b572e0a	0.0032833838
170	0x3e1b446c	0.1516282
171	0xbd7d3b2e	-0.061824016
172	0xbde1a899	-0.110184856
173	0x3eec18dd	0.4611272
174	0x3d15451d	0.036442865
175	0xbc23243f	-0.009957372
176	0x3eed6b7f	0.46371076
177	0x3eac711b	0.33680043
178	0x3e91492a	0.28376132
179	0x3e93ca46	0.2886526
180	0x3d5aedaa	0.05344931
181	0x3f2dd560	0.6790371
182	0x3e03d9ca	0.12876049
183	0x3e407086	0.18792924
184	0x3e3bf047	0.18353377
185	0x3ea13a40	0.31489754
186	0x3eb9a040	0.36255074
187	0x3e42ce77	0.19024073
188	0x3e388355	0.18018849
189	0x3bf80d56	0.007569949
190	0xbc40a432	-0.011757897
191	0x3eacdaa7	0.33760568
192	0x3e94524e	0.28969043
193	0xbd13d60b	-0.0360928
194	0xbe18542e	-0.14875862
195	0x3ea21e75	0.31663862
196	0x3b787e76	0.0037917173
197	0x3e763c4a	0.24046436
198	0x3dafe9a8	0.08589488
199	0x3ef7d598	0.48405147
200	0x3e9bc5d0	0.30424356
201	0xbc55f42e	-0.013058705
202	0x3e634669	0.22194828
203	0x3e63844b	0.22218435
204	0x3e576867	0.2103592
205	0x3ead1d12	0.3381124
206	0x3e3479cc	0.17624587
207	0x3e62d369	0.22150959
208	0x3cdd82fc	0.027039997
209	0x3e37e0c0	0.17956829
210	0x3cb13aad	0.021634424
211	0xbd4128eb	-0.047158163
212	0x3e083910	0.13303018
213	0xbe3822c2	-0.17982009
214	0x3e0adac8	0.13560021
215	0x3ddeb9f7	0.10875314
216	0xbe04ea72	-0.12980059
217	0x3e84ab39	0.25911883
218	0x3e2f8dab	0.17143886
219	0xbd2ad194	-0.041703776
220	0xbdfbb791	-0.12290872
221	0xbdf5aba7	-0.11995631
222	0x3dae3e46	0.085079715
223	0x3eaec850	0.341372
224	0x3e7f1fed	0.24914522
225	0xbb4deadc	-0.0031420505
226	0x3dcb3ddc	0.09923908
227	0x3c39ee72	0.011348354
228	0x3e91117c	0.28333652
229	0xbdebad16	-0.11507623
230	0x3a79ea50	0.00095335115
231	0x3de3316f	0.11093413
232	0xbeb026a4	-0.3440448
233	0x3d4f6f46	0.050643228
234	0x3e384a3b	0.17997067
235	0x3e2308ad	0.15921278
236	0x3db7c8de	0.08973859
237	0x3e419d1e	0.18907592
238	0x3e1f6144	0.15564448
239	0xbd5e6a4e	-0.0543006
240	0x3f034539	0.512775
241	0x3e5cb0d4	0.2155183
242	0x3dfe42d4	0.1241509
243	0x3e72d5d7	0.23714386
244	0x3e4f3a9d	0.20237203
245	0xbd93d75e	-0.072188124
246	0x3ea579db	0.3231953
247	0x3e90d448	0.28286958
248	0xbd925539	-0.07145161
249	0x3e2448cd	0.16043396
250	0x3eb6afe0	0.35681057
251	0xbe139f63	-0.1441627
252	0xbce25974	-0.027630545
253	0x3da8db0e	0.08244906
254	0xbe79e558	-0.24403894
255	0x3e8f4ea9	0.279897

model.fc2.bias f4 [32]
0	0x4094743c	4.639189
1	0x40922558	4.5670586
2	0x4098806d	4.765677
3	0x408fdb67	4.4955325
4	0xbc8ce848	-0.017200604
5	0x408f94d2	4.4869165
6	0xbdb2de2f	-0.087337844
7	0x4091d270	4.556938
8	0xbe502210	-0.20325494
9	0xbe5cdc33	-0.21568374
10	0xbe57624c	-0.21033591
11	0x408f2d70	4.4742966
12	0x4094dd91	4.6520467
13	0xbc8753bc	-0.01651942
14	0xbe14d0f6	-0.14532837
15	0xbdd9f44d	-0.106423
16	0x40911356	4.5336103
17	0x409265ad	4.5749116
18	0xbb8c5d00	-0.0042835474
19	0x408db30f	4.4281077
20	0xbdc37081	-0.09542943
21	0xbdb38a07	-0.08766561
22	0xbde8c9eb	-0.11366638
23	0x408ff906	4.4991484
24	0x408f25fa	4.473386
25	0xbe45682e	-0.19278023
26	0x408fee5a	4.4978456
27	0x4092bd8d	4.5856385
28	0x40925ad5	4.573588
29	0x40926ac7	4.5755343
30	0xbe4f050c	-0.20216769
31	0xbe0d99db	-0.13828222

model.fc3.weight f4 [1, 32]
0	0x3efdf720	0.49602604
1	0x3f29e232	0.6636077
2	0x3f21683f	0.6304969
3	0x3f149e32	0.58053887
4	0x3c175fa0	0.009239107
5	0x3f10d15b	0.5656945
6	0x3dca71cb	0.098849855
7	0x3efd92ef	0.49526164
8	0x3d108256	0.035280548
9	0xbc199868	-0.009374715
10	0xba08c180	-0.0005216822
11	0x3f1b6e43	0.6071512
12	0x3f1b0f3c	0.6057012
13	0xbbba3dc0	-0.0056836307
14	0x3d73649c	0.05942212
15	0x3d3a3d9e	0.04546892
16	0x3f1096c4	0.5648005
17	0x3f10ec77	0.56610817
18	0xbc8bfb24	-0.017087527
19	0x3f076803	0.52893084
20	0xbc87b07c	-0.016563646
21	0x39dffa00	0.0004272014
22	0xbd102cbc	-0.035198912
23	0x3f1e0785	0.61730224
24	0x3f0b2967	0.5436005
25	0x39c40a00	0.00037391484
26	0x3f0b322b	0.54373425
27	0x3f215017	0.6301283
28	0x3f168f2d	0.5881222
29	0x3f3106a7	0.69150776
30	0xbc843f48	-0.016143456
31	0xbd27f6d6	-0.041006885

square_avg f4 [64, 4]
0	0x43ef024c	478.01794
1	0x43e0c662	449.54987
2	0x4419a2ff	614.5468
3	0x43e45b46	456.71307
4	0x43c922c3	402.27158
5	0x43b7fc76	367.97235
6	0x43d0a622	417.2979
7	0x4397270a	302.305
8	0x435f142c	223.0788
9	0x43849bfd	265.21866
10	0x43a43a12	328.45367
11	0x43617fb9	225.49892
12	0x4400b6dc	514.8572
13	0x44041f54	528.4895
14	0x4421ccd7	647.2006
15	0x43fcb0b6	505.38055
16	0x4304e022	132.87552
17	0x4301baa5	129.72908
18	0x4345cbb4	197.79572
19	0x43100130	144.00464
20	0x42d8d5f4	108.41788
21	0x42f815a2	124.04225
22	0x42ba986b	93.29769
23	0x42cbce54	101.902985
24	0x43cd36e2	410.42877
25	0x43f15abb	482.70883
26	0x4411042e	580.0653
27	0x43cbe28c	407.7699
28	0x44200072	640.00696
29	0x44152901	596.6407
30	0x443a6799	745.6187
31	0x440694e9	538.3267
32	0x4449f7ed	807.87384
33	0x44642be8	912.68604
34	0x44bec039	1526.007
35	0x44379935	734.39386
36	0x42a2fab2	81.48964
37	0x4280d6fa	64.419876
38	0x42756b51	61.3548
39	0x4289c7db	68.89034
40	0x438d8bbe	283.09174
41	0x439b8088	311.00415
42	0x43c75546	398.6662
43	0x4378cfde	248.81198
44	0x43fc63cc	504.77966
45	0x44171338	604.3003
46	0x44554716	853.1107
47	0x440640a8	537.01025
48	0x43d59cbe	427.22455
49	0x43e18509	451.03934
50	0x43f1d7e1	483.68655
51	0x43d99717	435.1804
52	0x445e905a	890.2555
53	0x44619676	902.35095
54	0x44931e72	1176.9514
55	0x4451f156	839.7709
56	0x43b77658	366.92456
57	0x43b32637	358.29855
58	0x43f90c28	498.09497
59	0x43d5b396	427.403
60	0x43c5984d	395.18985
61	0x44018a6b	518.1628
62	0x43edcde9	475.60867
63	0x43b62f02	364.36725
64	0x43f5490a	490.57062
65	0x44094124	549.0178
66	0x441a60c7	617.51215
67	0x43fd06e5	506.05386
68	0x434339a5	195.22517
69	0x4338f00e	184.93771
70	0x43334fde	179.31198
71	0x4339d7eb	185.84343
72	0x437b839e	251.51413
73	0x43734bc0	243.2959
74	0x43993b64	306.464
75	0x435b7c06	219.48447
76	0x4356bddd	214.74165
77	0x433ebab6	190.72934
78	0x43716a4a	241.41519
79	0x4339b4a2	185.7056
80	0x43d5605a	426.75275
81	0x43bd09f6	378.07782
82	0x43ee663a	476.79865
83	0x43b91e89	370.23856
84	0x434ded9f	205.9282
85	0x4305a46c	133.64227
86	0x4302b02c	130.68817
87	0x43795381	249.32619
88	0x432ef1f5	174.94514
89	0x436936c9	233.214
90	0x437fa3ec	255.64032
91	0x431166c5	145.40144
92	0x42e13ae3	112.61501
93	0x42cf7366	103.72539
94	0x42be7f54	95.24869
95	0x42d4728b	106.22372
96	0x42e85e21	116.183846
97	0x42da9033	109.28164
98	0x42e4e860	114.45386
99	0x42d826d1	108.07581
100	0x43cb60c5	406.756
101	0x43df2a93	446.3326
102	0x43eac9c6	469.57635
103	0x43a925f0	338.2964
104	0x443c2914	752.64185
105	0x44355fd6	725.49744
106	0x445c33b7	880.80804
107	0x4415c6db	599.1071
108	0x430b0cc6	139.0499
109	0x4310c7ce	144.78049
110	0x42fecdcf	127.40197
111	0x43066794	134.4046
112	0x44138225	590.0335
113	0x44274c5d	669.1932
114	0x44824524	1042.1606
115	0x442702d1	668.044
116	0x437b0762	251.02884
117	0x437ab81a	250.71915
118	0x43a73d7f	334.48044
119	0x438b1daf	278.2319
120	0x42c84b9f	100.1477
121	0x42a5d7b5	82.9213
122	0x42a9055c	84.51047
123	0x42bbcc68	93.89923
124	0x43f13c55	482.47134
125	0x43f2d352	485.65094
126	0x442af2e1	683.795
127	0x43d21f49	420.24442
128	0x4357948e	215.58029
129	0x439d55c0	314.66992
130	0x43a3b126	327.38397
131	0x4381085a	258.06525
132	0x44162269	600.53766
133	0x44043758	528.86475
134	0x4431b76c	710.86597
135	0x4402c888	523.1333
136	0x431e3fd9	158.2494
137	0x432e6685	174.40047
138	0x4347d295	199.82259
139	0x43268c7a	166.54874
140	0x443caddf	754.71674
141	0x4430b258	706.7866
142	0x4472ad81	970.711
143	0x4431ecc2	711.69934
144	0x43fd5450	506.6587
145	0x440f8eea	574.23303
146	0x449c45f4	1250.186
147	0x440dcbf7	567.18695
148	0x42c22a6f	97.08288
149	0x42dae17e	109.440414
150	0x42ca6e63	101.2156
151	0x42c83d06	100.11919
152	0x43a394a8	327.16138
153	0x43a9b444	339.40833
154	0x43c25438	388.65796
155	0x438a43ea	276.53058
156	0x42d4349b	106.102745
157	0x42b77c70	91.74304
158	0x42eb1f57	117.56121
159	0x42c2286b	97.07894
160	0x43058036	133.50082
161	0x42d0c2cf	104.380486
162	0x430593d0	133.5774
163	0x42f23aec	121.11508
164	0x43b4f000	361.875
165	0x43bd5cdf	378.72556
166	0x43f9d47c	499.66003
167	0x43b558ec	362.6947
168	0x1b689a37	1.924042e-22
169	0x210124c9	4.3755585e-19
170	0x1fd5173d	9.0247453e-20
171	0x206031af	1.8989977e-19
172	0x427b718c	62.860886
173	0x428a01d9	69.00361
174	0x4268f5dd	58.2401
175	0x4280a58f	64.32336
176	0x43f8c993	497.5748
177	0x44021618	520.3452
178	0x4414c596	595.0873
179	0x43ddb5fe	443.4218
180	0x43b2f4eb	357.91342
181	0x43c95ae8	402.7102
182	0x442175e9	645.84235
183	0x43b0a49d	353.28604
184	0x43103ef7	144.24596
185	0x42ff6761	127.70191
186	0x4353a033	211.62578
187	0x433272a6	178.44785
188	0x43974a1e	302.57904
189	0x438d7134	282.8844
190	0x439b71ee	310.89008
191	0x4384cd13	265.60214
192	0x4440863a	770.0973
193	0x443f39f7	764.9057
194	0x4473af3b	974.738
195	0x442ab6e0	682.8574
196	0x427d1ebd	63.280018
197	0x42522208	52.533234
198	0x425ac0cd	54.688282
199	0x423fbd17	47.934658
200	0x43fea407	509.28146
201	0x4404ef4e	531.73914
202	0x44360b97	728.1811
203	0x4408dc0b	547.4382
204	0x44494cd3	805.2004
205	0x443c321e	752.7831
206	0x446c1a8e	944.4149
207	0x442b391d	684.8924
208	0x437cba69	252.72816
209	0x434c47a3	204.27983
210	0x439fdc08	319.719
211	0x43672114	231.12921
212	0x436e5c38	238.36023
213	0x436aea9c	234.91644
214	0x43823d26	260.47772
215	0x433568bc	181.40912
216	0x43a19a75	323.2067
217	0x439de4dc	315.78796
218	0x43f59f2b	491.2435
219	0x43a0ac5d	321.3466
220	0x44114a6e	581.16296
221	0x43fe1ae2	508.21002
222	0x44253161	660.77155
223	0x440216c5	520.3558
224	0x438b979a	279.1844
225	0x4383a78c	263.30896
226	0x439c27f8	312.31226
227	0x437e544f	254.32933
228	0x43df7c89	446.97293
229	0x43d7c1bb	431.51352
230	0x43fa272a	500.30597
231	0x43abd85d	343.69034
232	0x446df409	951.81305
233	0x446f4752	957.1144
234	0x44831c96	1048.8933
235	0x44668d02	922.20325
236	0x4356e852	214.9075
237	0x4362ecde	226.92526
238	0x437a5c1e	250.35983
239	0x433628c3	182.15923
240	0x4281aa2b	64.83236
241	0x426c8cd8	59.137543
242	0x429a9938	77.299255
243	0x42852db7	66.58929
244	0x42dce306	110.443405
245	0x42fc5a63	126.17654
246	0x43252d78	165.17761
247	0x42ed2e25	118.590126
248	0x4292e7e0	73.45288
249	0x42a9acc4	84.83743
250	0x427dc72c	63.444504
251	0x428df73f	70.9829
252	0x43a0cb9e	321.59076
253	0x43a679e8	332.9524
254	0x43c66b93	396.84042
255	0x438be120	279.7588

square_avg f4 [64]
0	0x43df06e4	446.05383
1	0x43be9101	381.13284
2	0x4395cd5d	299.6044
3	0x440a35c8	552.84033
4	0x430b37ba	139.21768
5	0x43081926	136.09824
6	0x43f1f1ba	483.8885
7	0x4426009c	664.0095
8	0x4448c3d6	803.05994
9	0x42948929	74.26789
10	0x43911402	290.1563
11	0x442640d9	665.01324
12	0x43e69615	461.17252
13	0x444bfdd1	815.9659
14	0x43c706de	398.05365
15	0x43c1947b	387.16
16	0x4416b959	602.89606
17	0x43499c6b	201.61101
18	0x434dd599	205.83437
19	0x43597546	217.4581
20	0x43d94b93	434.59042
21	0x436709eb	231.03874
22	0x434a0ab4	202.04181
23	0x42e41ca3	114.05593
24	0x42e81462	116.03981
25	0x43e55cba	458.72443
26	0x444ee4eb	827.57684
27	0x4310522d	144.321
28	0x441fb591	638.837
29	0x43819017	259.1257
30	0x42c99f12	100.810684
31	0x43f3ece5	487.85074
32	0x438b3ff4	278.49963
33	0x4417c7fc	607.12476
34	0x43434057	195.25133
35	0x445b097c	876.1482
36	0x441cc49b	627.07196
37	0x42de6266	111.192184
38	0x43c243eb	388.5306
39	0x42f5cc27	122.898735
40	0x42f716ea	123.544754
41	0x43d4f370	425.90186
42	0x2070b951	2.0390107e-19
43	0x428a21d5	69.06608
44	0x440ab89f	554.8847
45	0x43cf1bef	414.21823
46	0x43263ca8	166.23694
47	0x43775cfa	247.36319
48	0x441d99f1	630.40533
49	0x424cbbd7	51.183437
50	0x44047659	529.8492
51	0x44541ca4	848.4475
52	0x43574207	215.25792
53	0x43875310	270.64893
54	0x43bab26c	373.39392
55	0x4419f703	615.85956
56	0x4399dd19	307.72733
57	0x43b88795	369.05923
58	0x447e6651	1017.5987
59	0x436af9f4	234.97638
60	0x428eff8a	71.4991
61	0x42ed3f85	118.62406
62	0x42af407b	87.62594
63	0x43a70e36	334.11102

square_avg f4 [32, 64]
0	0x4231a099	44.406834
1	0x42312db7	44.294643
2	0x426fa352	59.909492
3	0x42688572	58.130318
4	0x4181d0df	16.226988
5	0x419eeb79	19.864977
6	0x4289ab75	68.83488
7	0x42c0f8e9	96.48615
8	0x41954796	18.659954
9	0x410dc057	8.859458
10	0x42564ced	53.575123
11	0x4281759c	64.729706
12	0x4278f071	62.234806
13	0x4213e008	36.96878
14	0x41c922a1	25.141909
15	0x4275757b	61.364727
16	0x428b9556	69.79167
17	0x41806c33	16.052832
18	0x41c89104	25.070808
19	0x41e91530	29.135345
20	0x423d096e	47.25921
21	0x40182dd4	2.3777971
22	0x4241ca07	48.447292
23	0x416355b7	14.208426
24	0x416e7ad3	14.904986
25	0x42222031	40.531437
26	0x42d2f190	105.4718
27	0x41a1df34	20.233986
28	0x423f83c3	47.878674
29	0x41dd92d2	27.69669
30	0x40fb6c56	7.8569746
31	0x42570037	53.75021
32	0x424230f3	48.547802
33	0x429a8b46	77.27202
34	0x42191ab6	38.276085
35	0x42b21638	89.043396
36	0x410b2205	8.695806
37	0x4131688f	11.088027
38	0x4275c224	61.43959
39	0x4202a922	32.66517
40	0x4207f789	33.991734
41	0x428abc99	69.368355
42	0x1d66b02a	3.0531321e-21
43	0x413319cb	11.193797
44	0x426b4b64	58.823624
45	0x42804577	64.13567
46	0x419946b5	19.159525
47	0x42035e61	32.842167
48	0x423d7ed9	47.373875
49	0x4112d658	9.17733
50	0x4237dde1	45.96668
51	0x428c4ee4	70.15408
52	0x41cf45d7	25.909101
53	0x420914d7	34.27035
54	0x42510994	52.259354
55	0x42609705	56.14748
56	0x4247d9d6	49.96273
57	0x428325fb	65.57418
58	0x4222e09f	40.719357
59	0x42142e9a	37.04551
60	0x41499814	12.599628
61	0x41b2d575	22.354227
62	0x41c37e8d	24.436792
63	0x425cb6b2	55.178413
64	0x4291e5a9	72.948555
65	0x429aa5d3	77.323875
66	0x42c3f108	97.970764
67	0x42ab95f1	85.792854
68	0x41cb283d	25.394648
69	0x41ea7c93	29.310827
70	0x42f09ce4	120.30643
71	0x4306ae73	134.68144
72	0x41ef3a71	29.903536
73	0x4158fdab	13.561931
74	0x42b6cb30	91.39685
75	0x42c1b7c9	96.858955
76	0x42b3dcf0	89.93152
77	0x4290dbdd	72.42942
78	0x42263443	41.551037
79	0x42cfdb28	103.92804
80	0x43073456	135.20444
81	0x4197816a	18.93819
82	0x420d98a4	35.399063
83	0x4242a39d	48.65978
84	0x428d8001	70.75001
85	0x404f8eda	3.243094
86	0x42884fc3	68.155785
87	0x41997d69	19.186235
88	0x41cb12d7	25.3842
89	0x4272f23a	60.73655
90	0x432f338e	175.20139
91	0x41cd434f	25.657866
92	0x42902a4d	72.08262
93	0x421c070e	39.00689
94	0x412d09fd	10.814939
95	0x429d0cef	78.52526
96	0x42a7583d	83.67234
97	0x42ef99bd	119.80027
98	0x428642ee	67.13072
99	0x430c6f23	140.43413
100	0x4151345b	13.075282
101	0x417e8254	15.906818
102	0x42c195bf	96.79247
103	0x4249db81	50.46436
104	0x427265e6	60.59951
105	0x42d9caf2	108.89638
106	0x1e609e50	1.18911995e-20
107	0x416a1399	14.629785
108	0x42bb6b03	93.70901
109	0x42c8e68f	100.45031
110	0x41ff3bc8	31.90419
111	0x423f11c9	47.76737
112	0x42923952	73.11195
113	0x413fdd1d	11.991483
114	0x42880228	68.00421
115	0x42cabe93	101.372215
116	0x421d404b	39.312786
117	0x425b0b7a	54.761208
118	0x42ae06bf	87.013176
119	0x42b27cd3	89.2438
120	0x4293cc2b	73.898766
121	0x42d330a6	105.59502
122	0x428486b3	66.263084
123	0x426227fe	56.539055
124	0x4188c64b	17.096823
125	0x4203c126	32.93862
126	0x42079090	33.891174
127	0x42b95fd8	92.687195
128	0x4269383f	58.304928
129	0x426a7796	58.616783
130	0x429544fa	74.63472
131	0x428d70c0	70.720215
132	0x41aa8e5d	21.319513
133	0x41bcc92c	23.598228
134	0x42a9097d	84.51853
135	0x42e39f75	113.81144
136	0x41dace21	27.350649
137	0x41288d12	10.534441
138	0x428887dc	68.26535
139	0x429a76bc	77.2319
140	0x429262a5	73.192665
141	0x4267b992	57.93122
142	0x420fee0d	35.98247
143	0x429925ef	76.57409
144	0x42c69fab	99.31185
145	0x416a939f	14.66104
146	0x41f374d5	30.432047
147	0x4209cb25	34.448383
148	0x4263b48f	56.926327
149	0x40298e36	2.6493049
150	0x42698916	58.383873
151	0x4163a694	14.2281685
152	0x41828158	16.313156
153	0x4231714c	44.36064
154	0x42efe94f	119.95568
155	0x419f1259	19.883959
156	0x425517e3	53.273327
157	0x42041be2	33.02723
158	0x41007219	8.027856
159	0x4284b7f8	66.359314
160	0x428432f7	66.09954
161	0x42bc5d40	94.18213
162	0x4252277d	52.538563
163	0x42d30a1c	105.519745
164	0x41285b67	10.522315
165	0x413f285c	11.947353
166	0x42ae4c5c	87.14914
167	0x421f0fb4	39.765335
168	0x422c118c	43.017136
169	0x42c7f02a	99.96907
170	0x1ba3beea	2.7089463e-22
171	0x41330b5c	11.190273
172	0x4291fa06	72.98833
173	0x42a64136	83.127365
174	0x41c30795	24.378702
175	0x422a0861	42.508183
176	0x42519f10	52.405334
177	0x410ce491	8.805802
178	0x42612915	56.29012
179	0x42b97c3d	92.74265
180	0x41fe10c9	31.758196
181	0x4247866b	49.881268
182	0x4282597b	65.17477
183	0x42947231	74.22303
184	0x42716cd5	60.35628
185	0x42b42faf	90.09313
186	0x42532257	52.783535
187	0x422af62d	42.740406
188	0x41402ea7	12.01139
189	0x41f3765c	30.432793
190	0x41b78311	22.938997
191	0x428589f2	66.769424
192	0x427c7bc0	63.12085
193	0x42745a26	61.088036
194	0x42a1d236	80.91057
195	0x428b7741	69.73292
196	0x41ad0e41	21.63196
197	0x41c34797	24.409956
198	0x42b6fe67	91.49688
199	0x42f1881c	120.76584
200	0x41d5b596	26.713665
201	0x412c062b	10.751506
202	0x42990703	76.513695
203	0x42a5a972	82.83095
204	0x429472bd	74.2241
205	0x42671f25	57.780415
206	0x4208b159	34.17319
207	0x42b5adbc	90.839325
208	0x42cef9f4	103.48819
209	0x418cc3e5	17.595652
210	0x41de9ff4	27.828102
211	0x42149bca	37.152138
212	0x428a93c2	69.28859
213	0x404702d5	3.1095479
214	0x4274177e	61.02294
215	0x4182a356	16.329754
216	0x419732a2	18.899723
217	0x4247a549	49.91141
218	0x430f516f	143.3181
219	0x41b7a379	22.95482
220	0x4266d73e	57.710197
221	0x41fbed1c	31.490776
222	0x4107f5d4	8.497517
223	0x42830fe5	65.531044
224	0x42798736	62.382042
225	0x42de719d	111.2219
226	0x4252eb62	52.729866
227	0x42e5d024	114.906525
228	0x412be331	10.742967
229	0x4137d6e8	11.489967
230	0x42a5a3e8	82.82013
231	0x422b85ea	42.880775
232	0x4230aa43	44.16627
233	0x42c275ad	97.229836
234	0x1e152891	7.896383e-21
235	0x4146241e	12.383818
236	0x429d30af	78.595085
237	0x42ab7373	85.72549
238	0x41c493ce	24.57217
239	0x421f1cdf	39.778194
240	0x426044fe	56.067375
241	0x41261e67	10.382422
242	0x424213d6	48.51937
243	0x42bd0ade	94.521225
244	0x42034c94	32.824783
245	0x423ecec6	47.701927
246	0x4288efea	68.46858
247	0x4287d73a	67.920364
248	0x427ea0ee	63.657158
249	0x42b93bf1	92.61707
250	0x42629da1	56.653934
251	0x424b3421	50.800907
252	0x41674735	14.454885
253	0x41eebdb6	29.842632
254	0x41ee8c4c	29.818504
255	0x42a58904	82.76761

square_avg f4 [32]
0	0x424492e2	49.14344
1	0x42a52baf	82.58532
2	0x42722a20	60.541138
3	0x428719a7	67.5501
4	0x25c67b05	3.4430886e-16
5	0x4278eba2	62.23011
6	0x2005dcfd	1.1338657e-19
7	0x425ebd87	55.685085
8	0x2528b0e6	1.4631613e-16
9	0x217d28ab	8.577356e-19
10	0x2587677b	2.3488888e-16
11	0x42835b2e	65.678085
12	0x4291db4d	72.92832
13	0x26172b96	5.244772e-16
14	0x23e4f745	2.4824532e-17
15	0x21ce2562	1.3968998e-18
16	0x424c54a7	51.08267
17	0x4262ca75	56.697712
18	0x25dde25b	3.8490773e-16
19	0x424cbf6a	51.186928
20	0x25120e4b	1.2668324e-16
21	0x2680a691	8.926932e-16
22	0x240fcd67	3.1182165e-17
23	0x427bba98	62.93222
24	0x42586222	54.095833
25	0x267a96e7	8.6940685e-16
26	0x426cd4dc	59.20787
27	0x4290c695	72.387856
28	0x42609c5b	56.15269
29	0x427ae4ce	62.723442
30	0x254777d0	1.7301093e-16
31	0x2687ee76	9.432142e-16

square_avg f4 [1, 32]
0	0x46829bd1	16717.908
1	0x46bc5888	24108.266
2	0x46e663f7	29489.982
3	0x46a71b44	21389.633
4	0x273bfe7a	2.6089415e-15
5	0x46e21af9	28941.486
6	0x2844c1fc	1.0922249e-14
7	0x46b788df	23492.436
8	0x2727072c	2.3179794e-15
9	0x24c5aa41	8.572355e-17
10	0x26a72266	1.1597277e-15
11	0x468ba6be	17875.371
12	0x46c520c1	25232.377
13	0x274b35be	2.8201043e-15
14	0x25b45091	3.1279616e-16
15	0x2244a190	2.6648484e-18
16	0x46bfe16a	24560.707
17	0x46b2f0eb	22904.459
18	0x27caa19e	5.624149e-15
19	0x46965404	19242.008
20	0x25c15bb1	3.3542296e-16
21	0x28f7d077	2.7512916e-14
22	0x234a0c7f	1.0953088e-17
23	0x46cd03e7	26241.951
24	0x468ad9cb	17772.896
25	0x2855e3b4	1.18732505e-14
26	0x46e042cd	28705.4
27	0x46a58b5b	21189.678
28	0x46819828	16588.078
29	0x46cad004	25960.008
30	0x2626a461	5.7815594e-16
31	0x27ef4baf	6.641788e-15
