logs/wage_model/version_0/checkpoints/epoch=99-step=3600.ckpt (torch, 27562 bytes, 10 tensors)

model.fc1.weight f4 [64, 4]
0	0x3e6c12d9	0.23054065
1	0x3da7fbdc	0.08202335
2	0x3dce7046	0.10080008
3	0x3d6074a2	0.05479873
4	0xbd82fd82	-0.06396009
5	0x3d2740fd	0.040833462
6	0x3e918554	0.28422034
7	0x3cf52d49	0.02992882
8	0x3e1537f5	0.14572127
9	0x3d60d6ef	0.054892477
10	0x3e269512	0.16267803
11	0x3e4b7074	0.19867116
12	0x3e38bfeb	0.18041961
13	0x3e5c435e	0.21510074
14	0xbd6ca856	-0.057777725
15	0xbd55f25a	-0.052233078
16	0x3e3a649b	0.1820244
17	0x3e22c215	0.15894349
18	0x3f0554c3	0.5208246
19	0x3f4fa686	0.8111347
20	0xbccf243c	-0.025285833
21	0x3e693a04	0.22776037
22	0x3e581e5c	0.21105331
23	0xbd3b02c4	-0.045656934
24	0xbca2b768	-0.019862846
25	0x3e0826e6	0.13296089
26	0x3d36d8c7	0.04464033
27	0xbcd9c570	-0.026583403
28	0x3dcfde9a	0.1014988
29	0xbd39a1b8	-0.045320243
30	0x3d4d9f20	0.05020058
31	0xbe7cee4c	-0.24700278
32	0x3c56aeba	0.0131031815
33	0x3e3a3d7b	0.18187515
34	0x3f374d69	0.71602494
35	0xbe19e3b6	-0.15028271
36	0xbd8918bc	-0.06694171
37	0x3d45fa1c	0.048334226
38	0xbef23de2	-0.47312838
39	0xbddcecee	-0.10787378
40	0x3d3c256d	0.04593413
41	0x3e2b2423	0.16713004
42	0x3da879b0	0.08226335
43	0xbd840b96	-0.06447522
44	0xbd26f18e	-0.04075771
45	0x3da69f6e	0.081358775
46	0x3eb47d25	0.35251728
47	0xbe077c6a	-0.13231054
48	0x3e2129ce	0.15738603
49	0x3dabbda8	0.083857834
50	0x3e3d27c6	0.18472204
51	0x3f50826d	0.81449014
52	0x3e110d2c	0.14165181
53	0x3d8aefc8	0.06784016
54	0x3f03f6d2	0.5154849
55	0x3f421d1a	0.75825655
56	0x3ec48132	0.38379818
57	0x3e2de92c	0.1698348
58	0x3e6893a3	0.22712569
59	0x3f582412	0.8443004
60	0xbc850421	-0.01623732
61	0xbdc4039c	-0.09571001
62	0x3f01ba7a	0.50675166
63	0x3f1f9bf6	0.6234735
64	0x3e2e3928	0.17013991
65	0x3df45ea7	0.11932116
66	0x3e2e5b18	0.17026937
67	0x3cf07286	0.029351484
68	0x3ca84732	0.020541761
69	0x3e1c5fd1	0.15270926
70	0x3d3144bb	0.043278437
71	0xbf1c1bf3	-0.6098015
72	0x3e4a0ccf	0.19731449
73	0x3e263803	0.16232304
74	0x3e745c6b	0.2386338
75	0x3f5e3a7f	0.8680801
76	0xbbaf1de0	-0.0053441375
77	0x3e6814c9	0.22664179
78	0x3dff9414	0.124794155
79	0xbe32bcdf	-0.17454861
80	0x3e21ff46	0.15820035
81	0x3e39c3d7	0.18141113
82	0x3dbab96c	0.09117398
83	0x3d90ce6d	0.070706226
84	0xbcb18778	-0.021671042
85	0xbd889fc0	-0.06671095
86	0xbd0d0b88	-0.034434825
87	0x3e43de57	0.19127785
88	0x3ca6e742	0.020373944
89	0x3dd5fd63	0.1044872
90	0x3e92c25f	0.28663918
91	0xbe06123c	-0.13092893
92	0xbe65b43e	-0.22432038
93	0x3e197d91	0.14989306
94	0xbd6458ad	-0.05574863
95	0xbf42a85d	-0.7603815
96	0xbd17c26c	-0.03705065
97	0x3e022285	0.1270848
98	0xbd1f40ec	-0.038880274
99	0xbf6c96b0	-0.9241743
100	0x3e58713c	0.21136945
101	0x3c7d3999	0.015455627
102	0x3e03bab2	0.12864187
103	0x3f0242c0	0.508831
104	0x3e14d390	0.1453383
105	0x3de91526	0.11380987
106	0x3e6460e7	0.2230259
107	0xbe84b3c6	-0.25918406
108	0xbe899f56	-0.26879376
109	0x3dafe607	0.08588796
110	0xbebf52c4	-0.37367833
111	0xbebb6819	-0.36602858
112	0x3e2afb5f	0.16697453
113	0x3dea695a	0.114458755
114	0x3e226e38	0.15862358
115	0xbcee4cbc	-0.029089324
116	0x3e308207	0.17237101
117	0x3dedc099	0.11609001
118	0x3e983136	0.29725045
119	0x3f1990c8	0.59986544
120	0xbe015599	-0.12630309
121	0xbced22e4	-0.028947301
122	0x3c3065fe	0.010766504
123	0xbf2d2a60	-0.67642784
124	0x3d4760ed	0.04867642
125	0x3d16be4e	0.036802582
126	0x3e967470	0.2938571
127	0x3d7519a4	0.059838906
128	0xbc1c15f2	-0.009526717
129	0x3e55f19f	0.20892952
130	0x3e5041d3	0.2033761
131	0x3d4e5368	0.05037251
132	0x3e15b228	0.14618742
133	0x3e0fc3ed	0.14039584
134	0x3d177ca9	0.03698412
135	0xbe492b79	-0.1964549
136	0x3eb35115	0.35022798
137	0x3e599a0b	0.21250169
138	0x3f2067bd	0.6265829
139	0xbeca4b36	-0.39510506
140	0x3bd77bc0	0.0065760314
141	0xbd66caaa	-0.05634562
142	0x3e1b774d	0.15182228
143	0x3d2c2402	0.042026527
144	0x3da63069	0.08114702
145	0x3e28b8ca	0.16476741
146	0x3f1943bb	0.59868973
147	0xbe9048b5	-0.2818047
148	0xbd7ec4e7	-0.0621995
149	0xbe8f5952	-0.27997833
150	0x3d4d4484	0.05011417
151	0xbea5f7ce	-0.32415622
152	0x3e4eb842	0.20187476
153	0x3e0bcaab	0.1365153
154	0x3f1fcf4b	0.6242568
155	0xbee42df2	-0.44566303
156	0xbd900c2e	-0.07033573
157	0x3e717fa2	0.23583844
158	0x3e07ab2e	0.13248894
159	0x3d6a5204	0.057207122
160	0x3d6ef944	0.058343187
161	0x3b91a138	0.0044442676
162	0xbf2fc758	-0.6866355
163	0x3cfabb28	0.030606821
164	0x3dbe11a1	0.09280706
165	0x3de91d5c	0.11382553
166	0x3ec43f63	0.3832961
167	0xbcc79a4e	-0.02436557
168	0xbd053e86	-0.03253033
169	0x3e08545a	0.13313428
170	0xbd152ac2	-0.03641773
171	0xbeb5265a	-0.35380822
172	0xbd934442	-0.071907535
173	0x3dec909c	0.115510195
174	0xbe07c88a	-0.13260093
175	0xbf22e0b6	-0.6362413
176	0x3d06873d	0.032843817
177	0x3cfba332	0.030717466
178	0x3d60527b	0.05476616
179	0xbc200129	-0.009765902
180	0x3e9100e7	0.28321
181	0x3e1c808b	0.1528341
182	0x3f0a650f	0.54060453
183	0xbec41aac	-0.383016
184	0x3d91747e	0.07102297
185	0x3e85eea0	0.2615862
186	0x3e570e90	0.21001649
187	0x3f56b77f	0.8387374
188	0xbe653a17	-0.22385441
189	0x3d9338dc	0.071885794
190	0x3f1db747	0.61607784
191	0xbd40c0a9	-0.047058735
192	0x3dc63842	0.09678699
193	0xbd886b07	-0.06661039
194	0x3ed85871	0.42254975
195	0x3f28f96c	0.6600559
196	0x3cb9b8c0	0.022671103
197	0x3e527be8	0.20555079
198	0xbe1ea696	-0.15493235
199	0xbf4abb8a	-0.7919241
200	0x3d4422a8	0.047884613
201	0x3d1a497d	0.03766774
202	0x3ea7d261	0.32777694
203	0x3dec2dd3	0.11532178
204	0x3da831bb	0.0821261
205	0x3d0e9534	0.03481026
206	0x3e9a777c	0.30169284
207	0x3e29c3db	0.16578619
208	0x3e18f3b3	0.14936714
209	0x3d7f2597	0.062291708
210	0xbd71a856	-0.05899843
211	0x3f21a361	0.6313992
212	0x3dfb7502	0.12278177
213	0x3de9cce0	0.1141603
214	0x3d213522	0.039357312
215	0x3d167523	0.036732804
216	0x3e244808	0.16043103
217	0x3e168f87	0.14703189
218	0x3f14eb5c	0.5817163
219	0xbf16a7f4	-0.58850026
220	0x3d5b5a3b	0.053552847
221	0x3c389ad2	0.011267381
222	0x3ef8d197	0.48597404
223	0x3f380050	0.71875477
224	0x3c1cbae6	0.009566044
225	0x3e862c8e	0.26205868
226	0x3e524c2b	0.20536868
227	0x3d712963	0.05887736
228	0x3e75d58d	0.24007244
229	0x3bbb861c	0.005722774
230	0x3e9d1c45	0.3068563
231	0x3d850194	0.06494442
232	0xbdf2e06a	-0.1185921
233	0x3e3d0238	0.18457878
234	0x3ed0ff4a	0.4081977
235	0x3d23d2f1	0.03999609
236	0xbd871fb8	-0.06597847
237	0x3dca416c	0.098757595
238	0x3e91e618	0.2849586
239	0x3e753397	0.23945461
240	0x3dc6243c	0.0967488
241	0x3e53e7d1	0.206939
242	0x3f2f2f18	0.68431234
243	0xbea73658	-0.32658648
244	0x3e0aa68d	0.13540097
245	0x3dc1fd7b	0.09472176
246	0x3de01e07	0.10943227
247	0xbc85a8ba	-0.016315807
248	0xbc6024c4	-0.013680641
249	0x3e00f584	0.12593657
250	0x3e6e349c	0.23262256
251	0xbbceff0c	-0.006317025
252	0x3e08927d	0.13337131
253	0x3e39fdd9	0.18163241
254	0x3de2262d	0.11042438
255	0xbcf255c3	-0.02958191

model.fc1.bias f4 [64]
0	0x3f446cf1	0.7672873
1	0x3f2b2c35	0.6686433
2	0x3f3e0d5a	0.7423912
3	0x3f24b1fb	0.64334077
4	0xbeaec6aa	-0.34135944
5	0x3f36d39e	0.7141665
6	0x3f2d9825	0.6781028
7	0x3f128f4a	0.5724989
8	0x3d8d01b3	0.0688509
9	0x3ea4062c	0.3203596
10	0x3f2f8365	0.6855987
11	0x3f070ac9	0.5275083
12	0xbc2d216f	-0.010567053
13	0xbeb43a0e	-0.35200542
14	0xbed9ef09	-0.42565182
15	0xbccf91fd	-0.025338167
16	0x3f38feae	0.7226361
17	0x3db41c6e	0.08794485
18	0xbe252f61	-0.16131355
19	0x3f25b9c4	0.6473658
20	0x3f379bde	0.7172221
21	0xbf1f1574	-0.6214211
22	0x3f5d9bd3	0.86565894
23	0x3d08ee04	0.033430114
24	0xbeaf3c40	-0.34225655
25	0xbdb00d8d	-0.085963346
26	0x3f4fcf89	0.8117605
27	0x3eeacf6b	0.45861372
28	0x3f16ed83	0.58956164
29	0xbea3a195	-0.31959215
30	0xbc72e734	-0.014825631
31	0x3f4ef3b6	0.80840623
32	0x3f40b6db	0.75279015
33	0x3f1e863e	0.6192359
34	0x3ed362a1	0.41286185
35	0x3f36dc5d	0.7143
36	0x3ef5b45b	0.47989163
37	0xbecd993b	-0.40155968
38	0x3efd7649	0.49504307
39	0x3f3df020	0.74194527
40	0x3ecb23df	0.39675805
41	0x3f541629	0.82846314
42	0xbe773ea8	-0.24144995
43	0xbe3ff0d0	-0.18744206
44	0x3f28bfe1	0.65917784
45	0x3ebadda8	0.36497235
46	0xbe53acd2	-0.20671394
47	0x3f271746	0.6526989
48	0xbdc55067	-0.09634476
49	0xbd8ebdc4	-0.06969789
50	0x3f3548dd	0.70814306
51	0x3f34f942	0.7069284
52	0xbf0dee6d	-0.55441934
53	0x3f347944	0.70497537
54	0x3ecbbbd4	0.3979174
55	0xbe24c153	-0.16089372
56	0x3f557e62	0.8339597
57	0x3f564e9b	0.8371369
58	0x3f14ef93	0.5817806
59	0x3f0e56be	0.5560111
60	0x3f2038a0	0.625864
61	0x3f16df45	0.5893443
62	0x3f0a152c	0.53938556
63	0x3f327381	0.69707495

model.fc2.weight f4 [32, 64]
0	0x3eaab025	0.33337513
1	0x3defcdad	0.117091514
2	0x3ec9e7f5	0.39434782
3	0x3c15e4b7	0.009148768
4	0x3f0ed3df	0.5579204
5	0x3d0abc76	0.033871137
6	0x3d51d10b	0.05122475
7	0x3e378582	0.17922023
8	0xbd43751f	-0.047719117
9	0x3e36fd2c	0.17870015
10	0x3e62d65a	0.22152081
11	0x3e63427f	0.22193335
12	0x3eeb8ba1	0.46004966
13	0x3e572136	0.21008763
14	0x3e731aec	0.23740739
15	0x3e6b5d9b	0.22984926
16	0xbd791e12	-0.060819693
17	0x3cc4aad4	0.024007238
18	0x3f41e08e	0.7573327
19	0x3e0123bd	0.1261129
20	0x3e922755	0.28545633
21	0x3e3209aa	0.17386499
22	0x3d939682	0.072064415
23	0x3e7b59c6	0.24545965
24	0x3e99119a	0.2989624
25	0x3e56209f	0.20910881
26	0x3ed88ae4	0.42293465
27	0x3e2ce8b8	0.1688565
28	0x3a32d818	0.00068223616
29	0x3e8d069c	0.27544105
30	0x3d52df78	0.051482648
31	0x3ea2766e	0.3173098
32	0x3e7e3638	0.2482537
33	0x3ec965c6	0.3933546
34	0xbda01882	-0.078171745
35	0x3cd1eca2	0.02562553
36	0xbe12d2fc	-0.14338297
37	0xbe19bd55	-0.1501363
38	0x3f0dfb34	0.5546143
39	0x3dd2ec53	0.102989815
40	0x3da08bb1	0.07839144
41	0x3e372c4b	0.1788799
42	0xbe24aa24	-0.16080528
43	0x3d5e942a	0.05434052
44	0x3da74854	0.08168092
45	0x3e477786	0.19479188
46	0x3e287480	0.16450691
47	0x3f02a6e7	0.5103592
48	0x3e2486ef	0.16067098
49	0x3dbda81f	0.09260582
50	0x3f05fae1	0.52335936
51	0x3e54fe26	0.20800075
52	0x3cd6d85a	0.026226211
53	0xbe10b75e	-0.14132449
54	0x3ebae5d0	0.36503458
55	0x3e9452af	0.28969333
56	0x3d669ecc	0.056303784
57	0x3eb8af79	0.36071375
58	0x3e7192ed	0.23591204
59	0x3e0496c8	0.12948143
60	0x3eda5403	0.4264222
61	0x3debee6e	0.11520086
62	0x3e87ab86	0.2649805
63	0x3e28871d	0.16457792
64	0xbdd70904	-0.104997665
65	0x3bd89c21	0.006610409
66	0x3e806a1b	0.25080952
67	0xbdb558ee	-0.088548526
68	0x3e660197	0.22461544
69	0x3e22c93f	0.15897082
70	0xbd041bc5	-0.032253046
71	0xbbe9fd16	-0.007140766
72	0x3d356d51	0.044293705
73	0x3e626dc5	0.22112186
74	0x3e679456	0.2261518
75	0x3ec8ab20	0.39193058
76	0x3e85840c	0.26077306
77	0x3e46351a	0.19356194
78	0x3e62a553	0.22133379
79	0x3d6c171f	0.057639237
80	0x3e938318	0.28810954
81	0x3e1bc6c7	0.15212546
82	0xbd4bb213	-0.04973037
83	0x3e6632ce	0.22480318
84	0xbe7197a4	-0.23593003
85	0x3d86150d	0.06546984
86	0xbd52d04b	-0.051468175
87	0x3de9c13a	0.11413808
88	0x3e1ab60f	0.15108512
89	0x3e8c9c65	0.2746307
90	0x3e851056	0.25989026
91	0x3e55bc7c	0.20872682
92	0x3ccd9692	0.025096212
93	0x3ebbe3fa	0.3669737
94	0xbe2cccd8	-0.16875017
95	0x3e2ca576	0.16859993
96	0xbd476f48	-0.04869011
97	0x3e08ee34	0.13372117
98	0x3d808f07	0.0627728
99	0x3e14ea26	0.14542446
100	0x3c721c4a	0.014777252
101	0xbe811c12	-0.25216728
102	0x3e979d84	0.29612362
103	0x3e667a1c	0.22507519
104	0x3df044e2	0.11731888
105	0x3ebefaef	0.37300822
106	0x3eb5a570	0.3547778
107	0x3d88bf8f	0.06677162
108	0x3d633054	0.05546601
109	0x3e0571cc	0.13031691
110	0x3ee2f554	0.44327796
111	0x3edc9d6e	0.4308886
112	0x3e7a865f	0.24465321
113	0xbe042d93	-0.1290801
114	0xbdc2c4c7	-0.095101885
115	0x3d9b716b	0.07589992
116	0xbdd41f1e	-0.10357498
117	0x3d84c13f	0.06482171
118	0xbe7d39a2	-0.24729016
119	0x3e8dc4ca	0.276892
120	0x3ea3cdc9	0.3199294
121	0x3e1c1ff0	0.15246558
122	0x3f273c76	0.6532663
123	0x3ebbd41e	0.3668527
124	0x3bfa6c00	0.007642269
125	0xbc9490dc	-0.01813548
126	0x3d95cfe7	0.07315045
127	0x3d867288	0.06564814
128	0x3e83f207	0.2577059
129	0xbb122cd8	-0.002230456
130	0x3d1f9e3c	0.038969263
131	0x3e0f6a45	0.14005382
132	0x3e999dd5	0.3000323
133	0x3e2c316b	0.16815726
134	0x3de7b077	0.11312955
135	0xbb3aa4b4	-0.0028479518
136	0x3edeb2b2	0.4349571
137	0x3db107db	0.086440764
138	0x3e0fc759	0.14040889
139	0xbd69e3d4	-0.05710204
140	0x3efba302	0.49147803
141	0x3ec69d86	0.38792056
142	0x3eb7ac8c	0.3587383
143	0x3d90d190	0.07071221
144	0x3eb9793d	0.3622531
145	0x3ea5057a	0.3223074
146	0x3e8697c7	0.26287672
147	0xbc59da10	-0.013296619
148	0x3ee031c9	0.43787983
149	0x3e285c18	0.16441381
150	0x3de28a7c	0.1106157
151	0x3e1aa95a	0.15103665
152	0x3df9f886	0.12205605
153	0xbe0a8dc6	-0.13530645
154	0xbe05173a	-0.12997141
155	0x3d5fc8f2	0.054634996
156	0xbde6afbe	-0.11263989
157	0xbd01dd4c	-0.031705186
158	0xbda50c15	-0.08058945
159	0x3ec30451	0.3808923
160	0xbbac40de	-0.005256756
161	0x3dbb6c73	0.091515444
162	0x3eaaf1b8	0.33387542
163	0x3ee170a5	0.44031253
164	0x3eb62ec7	0.35582563
165	0x3dd0d38e	0.10196601
166	0x3e88d831	0.2672744
167	0x3e4e1bf4	0.20127851
168	0x3d1d0a22	0.03833974
169	0x3e351c9d	0.17686696
170	0x3d4e6bd5	0.050395805
171	0x3e966c71	0.2937961
172	0x3c908dbe	0.017645713
173	0x3e844a97	0.25838158
174	0x3e3d2646	0.18471631
175	0x3ed1009b	0.40820774
176	0xbd06f433	-0.03294773
177	0x3dc6d5e5	0.09708766
178	0x3e6de4ee	0.23231861
179	0x3e97ead4	0.29671347
180	0xbc165e54	-0.009177763
181	0x3e7c5f08	0.24645627
182	0x3e12e696	0.14345774
183	0x3d8ea4f8	0.06965059
184	0x3e361ce1	0.17784454
185	0x3e04323e	0.12909791
186	0x3e8bd10a	0.27307922
187	0x3da28aa9	0.079366036
188	0x3e01657d	0.12636371
189	0xbd357aec	-0.04430668
190	0xbc035eb6	-0.008018186
191	0x3e8e3c48	0.27780366
192	0x3e06c2a8	0.13160193
193	0x3e423db8	0.18968856
194	0x3e675f5d	0.22594972
195	0x3d792207	0.060823467
196	0x3cdebba0	0.027189076
197	0x3e833c29	0.25631836
198	0x3d24b524	0.04021181
199	0x3e958616	0.29203862
200	0x3db6e160	0.089297056
201	0xba9c92b8	-0.0011945581
202	0xbe6c8930	-0.23099208
203	0xbcf44f9e	-0.02982312
204	0x3d3d7892	0.046257563
205	0x3eca3c6d	0.39499226
206	0x3e832493	0.2561384
207	0x3dfbfabe	0.12303685
208	0x3e08eb21	0.13370945
209	0x3dd04497	0.101693325
210	0x3e9db38e	0.30801052
211	0x3ea53698	0.32268214
212	0x3e7f3b78	0.2492503
213	0xbdf85eba	-0.12127443
214	0x3e237344	0.15961939
215	0xbe0e11c1	-0.1387396
216	0x3e79aba6	0.24381885
217	0xbdebfbe6	-0.11522655
218	0x3eb5b88a	0.35492355
219	0xbc91508c	-0.017738603
220	0x3e967ea6	0.293935
221	0x3d432593	0.047643255
222	0x3e2c9f41	0.16857626
223	0x3ebdfeea	0.37108546
224	0x3e739152	0.23785904
225	0x3df138cf	0.117784135
226	0x3eedd3b4	0.4645058
227	0xbd209385	-0.039203186
228	0x3de635e7	0.1124075
229	0xbe2fdc94	-0.17173988
230	0x3dc3cf5a	0.095610335
231	0x3c9572a0	0.018243134
232	0x3cf1ce76	0.029517394
233	0x3e333acf	0.17502902
234	0xbe721d14	-0.23643905
235	0xbcbee5bc	-0.023302905
236	0x3e45b865	0.19308622
237	0x3eabf2f7	0.33583805
238	0x3e09c536	0.13454136
239	0x3dad0721	0.08448625
240	0x3f013036	0.5046419
241	0x3e28bea4	0.16478974
242	0x3e2edf33	0.17077331
243	0x3db153f2	0.086585894
244	0xbe26407e	-0.1623554
245	0x3e860d74	0.2618214
246	0x3ea21d49	0.31662968
247	0x3ed5c46c	0.4175142
248	0x3de31cca	0.110894755
249	0x3def1d39	0.11675496
250	0xbce2ebee	-0.02770039
251	0x3d24a3d8	0.040195316
252	0x3de22ead	0.11044059
253	0x3d2726b5	0.0408084
254	0x3d050a80	0.032480717
255	0x3e4739f2	0.19455698

model.fc2.bias f4 [32]
0	0x40955936	4.66714
1	0x408fc148	4.492344
2	0x409571c7	4.670139
3	0x4095b515	4.6783547
4	0xbc8ce848	-0.017200604
5	0x4093a5b0	4.6139755
6	0xbdb2de30	-0.08733785
7	0x4093816b	4.609548
8	0xbe502210	-0.20325494
9	0xbf088748	-0.5333142
10	0xbe57624c	-0.21033591
11	0x408ef32f	4.4671855
12	0x40966bf8	4.70068
13	0xbc8753bc	-0.01651942
14	0xbe14d0f6	-0.14532837
15	0xbdd9f44c	-0.10642299
16	0x4091cce8	4.556263
17	0x40948084	4.640688
18	0xbb8c5d10	-0.004283555
19	0x4091b07a	4.5527925
20	0xbdc37081	-0.09542943
21	0xbdb38a07	-0.08766561
22	0xbde8c9eb	-0.11366638
23	0x408ee97a	4.4660006
24	0x408f2c68	4.4741707
25	0xbe45682e	-0.19278023
26	0x40923edc	4.5701733
27	0x40954c06	4.66553
28	0x4091d770	4.5575485
29	0x409171d7	4.5451465
30	0xbe4f050c	-0.20216769
31	0xbe0d99dc	-0.13828224

model.fc3.weight f4 [1, 32]
0	0x3f1b61d8	0.6069617
1	0x3f16ad11	0.5885783
2	0x3f06b9be	0.5262717
3	0x3f268a55	0.6505483
4	0x3c175fa0	0.009239107
5	0x3f1601f5	0.58596736
6	0x3dca71ca	0.09884985
7	0x3f1471f6	0.5798639
8	0x3d108256	0.035280548
9	0xbc9b6d10	-0.018972903
10	0xba08c200	-0.00052168965
11	0x3f16804a	0.58789504
12	0x3f13c757	0.57726043
13	0xbbba3db0	-0.0056836233
14	0x3d73649c	0.05942212
15	0x3d3a3d9e	0.04546892
16	0x3f10d061	0.5656796
17	0x3f093467	0.53595585
18	0xbc8bfb28	-0.017087534
19	0x3f105c14	0.563905
20	0xbc87b07c	-0.016563646
21	0x39dffa00	0.0004272014
22	0xbd102cba	-0.035198905
23	0x3f0f4b3e	0.55974185
24	0x3f1576b0	0.5838423
25	0x39c40900	0.0003739074
26	0x3f0dcd2a	0.5539118
27	0x3f1d3e34	0.6142304
28	0x3f043b05	0.51652557
29	0x3f1bfabe	0.6092948
30	0xbc843f48	-0.016143456
31	0xbd27f6d6	-0.041006885

square_avg f4 [64, 4]
0	0x440f7152	573.7706
1	0x43cf003b	414.0018
2	0x4401799d	517.9002
3	0x43fe1736	508.18134
4	0x443582e5	726.0452
5	0x4404cd66	531.20935
6	0x442a8bf1	682.1866
7	0x4408b68e	546.8524
8	0x439b6fa5	310.87222
9	0x438171f9	258.8904
10	0x439b9062	311.128
11	0x4381da12	259.70367
12	0x4381488e	258.56683
13	0x43518faf	209.56126
14	0x435e7ba0	222.48291
15	0x43249159	164.56776
16	0x442eedfe	699.7186
17	0x43e585c3	459.045
18	0x4457d4b0	863.32324
19	0x44263ba1	664.9317
20	0x440916f8	548.3589
21	0x43d3648c	422.78552
22	0x43cfe85f	415.8154
23	0x43992f2c	306.36853
24	0x435612df	214.07372
25	0x433a0ae0	186.04248
26	0x43534ac6	211.29208
27	0x432709ca	167.03824
28	0x42bf1ca9	95.55598
29	0x42876e3b	67.715294
30	0x42b564ed	90.69712
31	0x4286944b	67.289635
32	0x440c41e3	561.0295
33	0x43f60a28	492.07935
34	0x44381857	736.3803
35	0x43e4bb04	457.46106
36	0x426bc836	58.94552
37	0x42780f37	62.01486
38	0x41fb2591	31.393343
39	0x426b5615	58.834064
40	0x43d10e62	418.11237
41	0x43950ad2	298.08453
42	0x43c227f9	388.3123
43	0x438456f0	264.6792
44	0x43ed5ea7	474.73947
45	0x43c351a9	390.63797
46	0x43c3bd87	391.48068
47	0x43aff07b	351.87875
48	0x43f996a7	499.17697
49	0x43ba0c20	372.09473
50	0x44395b3d	741.4256
51	0x44039286	526.2894
52	0x440e2bf6	568.6869
53	0x43c68495	397.0358
54	0x4439086f	740.1318
55	0x43f82d63	496.35458
56	0x43d04baa	416.59113
57	0x43a9a670	339.3003
58	0x441e0c38	632.1909
59	0x43d4fdfd	425.98428
60	0x43ab9d23	343.22763
61	0x43878fec	271.1244
62	0x43d52877	426.31613
63	0x43b04ec4	352.61536
64	0x44285e53	673.4738
65	0x441cca72	627.1632
66	0x44233d43	652.9572
67	0x44024f80	521.2422
68	0x43a87190	336.8872
69	0x43610950	225.03638
70	0x4333d037	179.81334
71	0x435e8c54	222.54816
72	0x43bc2e4c	376.3617
73	0x437cc6c2	252.7764
74	0x43fa6787	500.8088
75	0x43ba489e	372.56732
76	0x4376c916	246.78549
77	0x4346d39f	198.82664
78	0x4361959d	225.58443
79	0x4327ea14	167.91437
80	0x443fa84a	766.6295
81	0x4431cfa5	711.24445
82	0x44331945	716.39484
83	0x43fa84a9	501.0364
84	0x238f1294	1.551196e-17
85	0x24aa59ec	7.387808e-17
86	0x222bef4f	2.330151e-18
87	0x236574fe	1.2438889e-17
88	0x442d8748	694.1138
89	0x441e8ea8	634.229
90	0x442a0590	680.0869
91	0x43e8c6e8	465.55396
92	0x4352a25c	210.63422
93	0x43631a52	227.10281
94	0x4316482c	150.28192
95	0x4349de4d	201.86836
96	0x4234e296	45.221275
97	0x42273e29	41.810703
98	0x420ea141	35.657475
99	0x422f5b9f	43.839474
100	0x432d07c2	173.0303
101	0x42d4f2f6	106.47453
102	0x434ce693	204.90068
103	0x43186f56	152.4349
104	0x442ad7e2	683.37317
105	0x43fa023c	500.01746
106	0x43f2206c	484.2533
107	0x43d24a1c	420.57898
108	0x431327c4	147.15533
109	0x42a679b3	83.23769
110	0x4291a0b3	72.813866
111	0x42c6d052	99.406876
112	0x4395f77c	299.93347
113	0x43507b6b	208.4821
114	0x436f68bc	239.40912
115	0x4337da19	183.85194
116	0x42efd7c3	119.92141
117	0x429d2c1a	78.586136
118	0x43346792	180.40457
119	0x42eadb3f	117.428215
120	0x42591129	54.266758
121	0x42630c57	56.76205
122	0x422d3698	43.303314
123	0x425be3e5	54.972553
124	0x44928627	1172.1923
125	0x448bfbe8	1119.8721
126	0x449c32cc	1249.5874
127	0x4464538c	913.3054
128	0x43e37a9f	454.95798
129	0x43ead590	469.66846
130	0x44057258	533.7866
131	0x43ea0de7	468.1086
132	0x42fd89c8	126.769104
133	0x42b56eb0	90.71619
134	0x42ead1db	117.409874
135	0x42c3e262	97.942154
136	0x43d63fe4	428.49915
137	0x439b7d3a	310.97833
138	0x43afdb97	351.71555
139	0x43899ef5	275.24185
140	0x4388b745	273.4318
141	0x436ff68b	239.96306
142	0x439b3dc3	310.4825
143	0x437c8900	252.53516
144	0x43d3036e	422.0268
145	0x43ab3fc4	342.49817
146	0x43e87763	464.9327
147	0x43ac0232	344.01715
148	0x41606e9f	14.027007
149	0x4121cf3d	10.113095
150	0x41128176	9.156607
151	0x41375712	11.458757
152	0x44582756	864.6146
153	0x43fdf935	507.94693
154	0x44273bfc	668.93726
155	0x43d5fc96	427.97333
156	0x43ce5201	412.64066
157	0x43c2ea27	389.8293
158	0x43d1fd80	419.98047
159	0x43b26a9a	356.83282
160	0x42bbd2b1	93.91151
161	0x42d84bae	108.14781
162	0x4257a04d	53.906544
163	0x4299d351	76.91273
164	0x440fdd52	575.4581
165	0x44046586	529.5863
166	0x443074e7	705.8266
167	0x43f671fd	492.89053
168	0x41691822	14.568392
169	0x414bda08	12.74073
170	0x4154d61a	13.302271
171	0x4162e899	14.181787
172	0x4290dcb8	72.43109
173	0x422a588d	42.586475
174	0x4215b013	37.421947
175	0x42348551	45.13019
176	0x4355032d	213.0124
177	0x4357bfde	215.74948
178	0x438fffe2	287.99908
179	0x4345bb94	197.73273
180	0x43821de2	260.23346
181	0x437f19d0	255.10083
182	0x4382d625	261.673
183	0x4352eddd	210.92915
184	0x4406bedd	538.98224
185	0x43b7a2a9	367.27078
186	0x44338f80	718.2422
187	0x43efa6bd	479.30264
188	0x44d69efb	1716.9681
189	0x44a1dced	1294.9039
190	0x44a0441c	1282.1284
191	0x448e5d5b	1138.9174
192	0x4404caab	531.1667
193	0x43b05f20	352.74316
194	0x443af93d	747.89435
195	0x44110b2d	580.1746
196	0x432fef0c	175.93378
197	0x4311a164	145.63043
198	0x42f62245	123.06693
199	0x431a9a66	154.60312
200	0x43e50daf	458.1069
201	0x43bd89b7	379.0759
202	0x43cf874e	415.05707
203	0x43a97abb	338.95883
204	0x43f8ea48	497.83032
205	0x43c27eb0	388.98975
206	0x4404ce6d	531.2254
207	0x43b5c45e	363.53412
208	0x41fcad1b	31.584524
209	0x41a3969d	20.448542
210	0x424a5813	50.58601
211	0x420744a5	33.817036
212	0x439739c2	302.45123
213	0x437251e3	242.31987
214	0x4386e39e	269.77826
215	0x435ae1c5	218.88191
216	0x43acf883	345.9415
217	0x4392ee93	293.86386
218	0x43a4e3e1	329.7803
219	0x437702e9	247.01137
220	0x44026904	521.64087
221	0x43fb53cc	502.65466
222	0x4447210c	796.51636
223	0x44245a34	657.4094
224	0x4426e2b2	667.5421
225	0x44319f3a	710.4879
226	0x4426d90d	667.3914
227	0x440f0109	572.0162
228	0x43c8be8a	401.4886
229	0x43ae38fa	348.44513
230	0x43e01004	448.12512
231	0x439834e4	304.4132
232	0x44055bde	533.4354
233	0x43f856db	496.67856
234	0x4415c01d	599.0018
235	0x43f1efea	483.87433
236	0x44397bea	741.93616
237	0x4425504a	661.2545
238	0x4451e88c	839.63354
239	0x441ccf24	627.2366
240	0x442e2c6e	696.6942
241	0x43c8939e	401.15326
242	0x4402ffe7	523.9985
243	0x43ca874e	405.05707
244	0x431b4e49	155.3058
245	0x431980b3	153.50273
246	0x4331c93f	177.78612
247	0x42fecafc	127.396454
248	0x43254678	165.27527
249	0x43007e4f	128.4934
250	0x43298706	169.52744
251	0x42fb05fb	125.51168
252	0x43a1cc46	323.5959
253	0x438bcd23	279.60263
254	0x43a34c65	326.59683
255	0x438ba8b4	279.318

square_avg f4 [64]
0	0x44084c92	545.1964
1	0x442c25a8	688.5884
2	0x43a06a97	320.83273
3	0x436bcbfc	235.79681
4	0x441b7080	621.7578
5	0x43d17047	418.87717
6	0x43620461	226.0171
7	0x42aad2a3	85.4114
8	0x43ff84de	511.03802
9	0x4284590e	66.173935
10	0x43ac9f35	345.2438
11	0x43dcd500	441.66406
12	0x43f4fce3	489.97568
13	0x43e85008	464.62524
14	0x43c65d6c	396.72986
15	0x43a7ecb8	335.84937
16	0x44359d39	726.4566
17	0x437b71d5	251.44466
18	0x43ab2351	342.2759
19	0x43577e83	215.49419
20	0x442ece4d	699.22345
21	0x2355b31d	1.1584682e-17
22	0x442221be	648.5272
23	0x43574244	215.25885
24	0x423c499c	47.071884
25	0x43108b42	144.54398
26	0x43fd3ea6	506.48944
27	0x42be32a9	95.098946
28	0x43699105	233.56648
29	0x42dd39b7	110.612724
30	0x426ba8a4	58.91469
31	0x44a3315e	1305.5427
32	0x44140f72	592.24133
33	0x42f95b15	124.677895
34	0x43a74d19	334.60233
35	0x43a654ac	332.6615
36	0x43dae283	437.76962
37	0x4144dbb3	12.3036375
38	0x441b215e	620.52136
39	0x43f04fd5	480.6237
40	0x42d0417e	104.127914
41	0x4422be7b	650.97626
42	0x4173a3be	15.227476
43	0x4241d2cc	48.455856
44	0x437ae845	250.9073
45	0x4385c39a	267.52814
46	0x43d74632	430.5484
47	0x4499c2d4	1230.0884
48	0x4405caa7	535.16644
49	0x432600a4	166.0025
50	0x43ef88eb	479.06967
51	0x43fb5b66	502.71405
52	0x41fbf56d	31.494837
53	0x43785685	248.33797
54	0x439179d0	290.95166
55	0x441813c5	608.3089
56	0x4431db39	711.42535
57	0x43e03b49	448.46317
58	0x4420b646	642.848
59	0x443667a8	729.6196
60	0x43dafc77	437.97238
61	0x43281133	168.06718
62	0x4322f055	162.9388
63	0x43a59d40	331.22852

square_avg f4 [32, 64]
0	0x42a9a401	84.82032
1	0x42aee316	87.44353
2	0x42a65a24	83.176056
3	0x42484b5f	50.073605
4	0x428546ab	66.63802
5	0x428ea87a	71.329056
6	0x4252c5aa	52.69303
7	0x421a3be3	38.558483
8	0x428362bb	65.69283
9	0x418586ac	16.690758
10	0x4255ab26	53.417137
11	0x42752cd3	61.293774
12	0x426f8e23	59.888805
13	0x424e2a87	51.54153
14	0x41f3a242	30.454227
15	0x427140fa	60.313454
16	0x428bb43a	69.852005
17	0x41a8f3f6	21.119122
18	0x42123958	36.556
19	0x42350bb0	45.261414
20	0x42935a5b	73.676476
21	0x1ea2e2fd	1.7246297e-20
22	0x42c1e95c	96.95578
23	0x41a2118b	20.258566
24	0x40f4a764	7.6454334
25	0x41b0fda0	22.12384
26	0x42a168f4	80.70499
27	0x41e725ab	28.893393
28	0x424f703d	51.859608
29	0x418dd185	17.727304
30	0x41703b55	15.014485
31	0x42d94a08	108.64459
32	0x4292cc3d	73.3989
33	0x42587d13	54.122143
34	0x42a6dd76	83.43254
35	0x4267882b	57.882977
36	0x42ab137d	85.53806
37	0x3f811a49	1.0086147
38	0x42c07312	96.22475
39	0x429d1fbb	78.56197
40	0x41ba9fb0	23.327972
41	0x42cfb809	103.85944
42	0x4034a5d5	2.8226216
43	0x40ee9ce9	7.456654
44	0x426dbb1a	59.432716
45	0x4257db1d	53.963978
46	0x4217ac75	37.918415
47	0x42dcbb5c	110.36594
48	0x42839afb	65.8027
49	0x4189cff8	17.226547
50	0x429f6c94	79.71207
51	0x42947219	74.22285
52	0x40873858	4.225628
53	0x42753635	61.302937
54	0x429bb7a2	77.85866
55	0x425e74e1	55.61414
56	0x42ce4275	103.1298
57	0x42d5eaf7	106.958916
58	0x42a134f6	80.60344
59	0x4289ecf7	68.96282
60	0x42bd3909	94.6114
61	0x4216e930	37.727722
62	0x4239cdc3	46.45094
63	0x425bc16c	54.93889
64	0x42c1521c	96.66037
65	0x42a7fbe8	83.992004
66	0x42a6ceff	83.40429
67	0x42697446	58.36355
68	0x429332fc	73.59958
69	0x428cb499	70.35273
70	0x42658531	57.38007
71	0x4216a17f	37.65771
72	0x42832fd9	65.59345
73	0x418e9bdd	17.826105
74	0x42842519	66.07246
75	0x427c9c99	63.152927
76	0x426da79a	59.413673
77	0x42529cb4	52.65303
78	0x4212549e	36.582634
79	0x4286f6c6	67.48198
80	0x42a88155	84.2526
81	0x419dde70	19.733612
82	0x423bf435	46.988483
83	0x423797fa	45.898415
84	0x428b942a	69.78938
85	0x20c7ff93	3.3881036e-19
86	0x42d9e576	108.948166
87	0x41aa06a7	21.253248
88	0x40e37e05	7.1091332
89	0x41d03e75	26.030497
90	0x42a07fe3	80.24978
91	0x41d7e65c	26.98748
92	0x4251420c	52.3145
93	0x419d3541	19.651003
94	0x41694370	14.578964
95	0x42ced342	103.41261
96	0x42a2b451	81.35218
97	0x4259f120	54.485474
98	0x42ad578a	86.670975
99	0x428ae18b	69.44051
100	0x42b0f234	88.47305
101	0x3f735350	0.95049
102	0x42b30585	89.51078
103	0x42a987cc	84.76523
104	0x41d347ba	26.410023
105	0x42e81de7	116.0584
106	0x403b5206	2.9268813
107	0x40d16c6e	6.544486
108	0x4260f2f6	56.237267
109	0x426225dc	56.536972
110	0x421e0618	39.50595
111	0x42e8418b	116.12801
112	0x428411d4	66.03482
113	0x41815a6c	16.169151
114	0x42b94a5f	92.645256
115	0x42a998f5	84.798744
116	0x40941668	4.627735
117	0x4285c81e	66.890854
118	0x42739f2b	60.905437
119	0x424f64f6	51.848595
120	0x42c3926a	97.785965
121	0x42ebac6f	117.836784
122	0x42b4bf6f	90.37389
123	0x429d7d08	78.7442
124	0x42abb33d	85.850075
125	0x4233f1ef	44.986263
126	0x42467400	49.61328
127	0x4266bc3f	57.683834
128	0x4295c5e2	74.88649
129	0x427b5b23	62.839
130	0x427f14c0	63.770264
131	0x42368356	45.628258
132	0x42562236	53.53341
133	0x4262bc33	56.68379
134	0x42357ea6	45.37368
135	0x41e7e456	28.986492
136	0x42366145	45.59499
137	0x413f010c	11.937756
138	0x424371ef	48.861263
139	0x42401390	48.019104
140	0x42407ceb	48.12199
141	0x420d8db1	35.38837
142	0x41e660f0	28.797333
143	0x422eee39	43.73264
144	0x427b4e2f	62.82635
145	0x41778487	15.469855
146	0x420ba0e6	34.907127
147	0x420bb793	34.92927
148	0x4274478a	61.069862
149	0x1da4207f	4.344404e-21
150	0x429f868e	79.7628
151	0x41821ea3	16.26496
152	0x40b19ead	5.5506196
153	0x41847121	16.555239
154	0x4268b854	58.180008
155	0x41b4c2f2	22.595188
156	0x422217fd	40.523426
157	0x416ef3db	14.934535
158	0x413d9d2e	11.850874
159	0x42a267c5	81.202675
160	0x426b36de	58.80358
161	0x42398a51	46.385075
162	0x427d3ab4	63.307327
163	0x42485461	50.0824
164	0x4282bbad	65.366554
165	0x3f4aecb1	0.7926741
166	0x427324fa	60.78611
167	0x42838f9f	65.78051
168	0x4197662f	18.924894
169	0x42a1d987	80.92486
170	0x400d139b	2.2043216
171	0x40985695	4.760569
172	0x4225ef24	41.483536
173	0x4225e612	41.474678
174	0x41df9d21	27.951723
175	0x42a3326c	81.59848
176	0x423947ed	46.32024
177	0x4143dd2e	12.241499
178	0x4289a9d3	68.83169
179	0x4283c60a	65.886795
180	0x405d79a2	3.4605489
181	0x4240e4f4	48.223587
182	0x4253c2ac	52.94011
183	0x423c2a64	47.041397
184	0x429acca3	77.39968
185	0x42aae0e6	85.439255
186	0x4289f100	68.9707
187	0x425b15d9	54.771336
188	0x4280bcdd	64.36887
189	0x4215a340	37.409424
190	0x4220f702	40.24122
191	0x4234eb22	45.22962
192	0x42e761d6	115.691086
193	0x42c750f0	99.65808
194	0x42b27456	89.22722
195	0x427a141d	62.51964
196	0x42a4e3fd	82.44529
197	0x429d8aef	78.771355
198	0x428b07e6	69.51543
199	0x4223901f	40.890743
200	0x429715d5	75.54264
201	0x418f0e39	17.881945
202	0x42947c48	74.24274
203	0x428ea505	71.3223
204	0x428af475	69.477455
205	0x4279507a	62.32859
206	0x421930d0	38.29767
207	0x4291fa1e	72.98851
208	0x42c62fc1	99.09327
209	0x41ca35f1	25.276339
210	0x4252d48a	52.707558
211	0x424a2fb4	50.546585
212	0x42b6a836	91.32854
213	0x00000000	0.0
214	0x42e412db	114.03683
215	0x41b4ec52	22.61539
216	0x4109c735	8.611135
217	0x41d4cc1b	26.59966
218	0x42c0f833	96.484764
219	0x4204fca7	33.24673
220	0x42881334	68.037506
221	0x41a95347	21.165663
222	0x41886c0e	17.052761
223	0x42f365b7	121.69866
224	0x42b16544	88.697784
225	0x42850a90	66.52063
226	0x42d4ba5b	106.363976
227	0x429a750a	77.22859
228	0x42c0da79	96.426704
229	0x3f816205	1.0108038
230	0x42cd20f7	102.564384
231	0x42af4358	87.63153
232	0x4202939e	32.644157
233	0x42feaada	127.333694
234	0x403bf74c	2.9369688
235	0x40fed840	7.9638977
236	0x4270a46d	60.160572
237	0x425a5a3e	54.588127
238	0x42302ba7	44.04263
239	0x4308e61c	136.89886
240	0x428f1132	71.533585
241	0x4193f864	18.496284
242	0x42cded83	102.96389
243	0x42c74a91	99.64564
244	0x409aa078	4.8320885
245	0x42976b61	75.709724
246	0x42a53a2a	82.6136
247	0x428c3176	70.0966
248	0x42d3b2d9	105.84931
249	0x430e39df	142.22606
250	0x42da4c28	109.14874
251	0x42af45ad	87.636086
252	0x42c867de	100.202866
253	0x425f04ca	55.754677
254	0x426acaef	58.698177
255	0x42815696	64.66911

square_avg f4 [32]
0	0x42839819	65.797066
1	0x428ba4d0	69.8219
2	0x4253182b	52.7736
3	0x42a3c552	81.88539
4	0x25cb6006	3.5279955e-16
5	0x4272fb3b	60.745342
6	0x2016647e	1.2738744e-19
7	0x42828ef3	65.2792
8	0x2579b004	2.1656944e-16
9	0x2bb73e58	1.3020236e-12
10	0x259b0a4f	2.68952e-16
11	0x429377cf	73.734
12	0x4281692b	64.70541
13	0x2606cbd7	4.6766844e-16
14	0x23c43c92	2.1276015e-17
15	0x21077b60	4.5903065e-19
16	0x4256bfbd	53.687244
17	0x426224d4	56.535965
18	0x25cf7c92	3.5993188e-16
19	0x425d1f88	55.280792
20	0x2606cef8	4.6771084e-16
21	0x26804858	8.901393e-16
22	0x23f6ba46	2.6750263e-17
23	0x4276317d	61.54833
24	0x4275fbf4	61.496048
25	0x263b8b8d	6.5067785e-16
26	0x42739526	60.895653
27	0x4291666a	72.70003
28	0x424e1f8e	51.530815
29	0x4288bfd1	68.37464
30	0x25ae68cb	3.02552e-16
31	0x269bb4f2	1.0804331e-15

square_avg f4 [1, 32]
0	0x4703976d	33687.426
1	0x46b7d201	23529.002
2	0x46e68b65	29509.697
3	0x46bf5dca	24494.895
4	0x271e381a	2.1957317e-15
5	0x46a58c1b	21190.053
6	0x28b0eceb	1.9642672e-14
7	0x470278fb	33400.98
8	0x2802464a	7.231691e-15
9	0x2cf4182d	6.937581e-12
10	0x276effd4	3.316782e-15
11	0x46cf42ca	26529.395
12	0x46c60bf9	25349.986
13	0x276aad90	3.2568112e-15
14	0x2637e752	6.3804377e-16
15	0x22d65adf	5.810103e-18
16	0x4700a694	32934.58
17	0x46f07d1a	30782.55
18	0x27341354	2.4990496e-15
19	0x46b1070e	22659.527
20	0x275de18b	3.0792178e-15
21	0x2906dd49	2.994591e-14
22	0x23c2574d	2.1070495e-17
23	0x46b92c5d	23702.182
24	0x46adcf88	22247.766
25	0x283d23ee	1.0499399e-14
26	0x46f5047d	31362.244
27	0x46b28a87	22853.264
28	0x46b08f6e	22599.715
29	0x46e0cffb	28775.99
30	0x2723f8d3	2.2755682e-15
31	0x2812b84c	8.144591e-15
